{"format": "graph-model", "generatedBy": "2.18.0", "convertedBy": "TensorFlow.js Converter v4.22.0", "signature": {"outputs": {"Identity:0": {"name": "Identity:0"}}}, "modelTopology": {"node": [{"name": "ConstantFolding/model_83/tf.math.divide_5/truediv_recip", "op": "Const", "attr": {"dtype": {"type": "DT_FLOAT"}, "value": {"tensor": {"dtype": "DT_FLOAT", "tensorShape": {"dim": [{"size": "1"}, {"size": "1"}, {"size": "1"}]}}}}}, {"name": "model_83/86601", "op": "Const", "attr": {"dtype": {"type": "DT_FLOAT"}, "value": {"tensor": {"dtype": "DT_FLOAT", "tensorShape": {"dim": [{"size": "1"}, {"size": "2"}, {"size": "33600"}]}}}}}, {"name": "model_83/tf.strided_slice_119/ones_like/tensor", "op": "Const", "attr": {"value": {"tensor": {"dtype": "DT_INT64", "tensorShape": {"dim": [{"size": "3"}]}}}, "dtype": {"type": "DT_INT64"}}}, {"name": "model_83/tf.strided_slice_119/StridedSlice/end", "op": "Const", "attr": {"value": {"tensor": {"dtype": "DT_INT64", "tensorShape": {"dim": [{"size": "3"}]}}}, "dtype": {"type": "DT_INT64"}}}, {"name": "model_83/tf.strided_slice_119/ones_like", "op": "Const", "attr": {"dtype": {"type": "DT_INT64"}, "value": {"tensor": {"dtype": "DT_INT64", "tensorShape": {"dim": [{"size": "3"}]}}}}}, {"name": "model_83/86604", "op": "Const", "attr": {"dtype": {"type": "DT_FLOAT"}, "value": {"tensor": {"dtype": "DT_FLOAT", "tensorShape": {"dim": [{"size": "1"}, {"size": "2"}, {"size": "33600"}]}}}}}, {"name": "model_83/tf.strided_slice_116/StridedSlice/begin", "op": "Const", "attr": {"value": {"tensor": {"dtype": "DT_INT64", "tensorShape": {"dim": [{"size": "3"}]}}}, "dtype": {"type": "DT_INT64"}}}, {"name": "model_83/tf.strided_slice_116/StridedSlice/end", "op": "Const", "attr": {"dtype": {"type": "DT_INT64"}, "value": {"tensor": {"dtype": "DT_INT64", "tensorShape": {"dim": [{"size": "3"}]}}}}}, {"name": "model_83/tf.strided_slice_116/StridedSlice/strides", "op": "Const", "attr": {"value": {"tensor": {"dtype": "DT_INT64", "tensorShape": {"dim": [{"size": "3"}]}}}, "dtype": {"type": "DT_INT64"}}}, {"name": "model_83/tf.reshape_86/Reshape/shape", "op": "Const", "attr": {"dtype": {"type": "DT_INT32"}, "value": {"tensor": {"dtype": "DT_INT32", "tensorShape": {"dim": [{"size": "4"}]}}}}}, {"name": "model_83/tf.compat.v1.transpose_159/transpose/perm", "op": "Const", "attr": {"value": {"tensor": {"dtype": "DT_INT32", "tensorShape": {"dim": [{"size": "4"}]}}}, "dtype": {"type": "DT_INT32"}}}, {"name": "model_83/tf.compat.v1.transpose_160/transpose/perm", "op": "Const", "attr": {"value": {"tensor": {"dtype": "DT_INT32", "tensorShape": {"dim": [{"size": "4"}]}}}, "dtype": {"type": "DT_INT32"}}}, {"name": "model_83/tf.nn.convolution_423/convolution/filter", "op": "Const", "attr": {"value": {"tensor": {"dtype": "DT_FLOAT", "tensorShape": {"dim": [{"size": "1"}, {"size": "1"}, {"size": "16"}, {"size": "1"}]}}}, "dtype": {"type": "DT_FLOAT"}}}, {"name": "model_83/tf.compat.v1.transpose_165/transpose/perm", "op": "Const", "attr": {"value": {"tensor": {"dtype": "DT_INT32", "tensorShape": {"dim": [{"size": "4"}]}}}, "dtype": {"type": "DT_INT32"}}}, {"name": "model_83/tf.reshape_89/Reshape/shape", "op": "Const", "attr": {"dtype": {"type": "DT_INT32"}, "value": {"tensor": {"dtype": "DT_INT32", "tensorShape": {"dim": [{"size": "3"}]}}}}}, {"name": "model_83/tf.strided_slice_118/ones_like/tensor", "op": "Const", "attr": {"value": {"tensor": {"dtype": "DT_INT64", "tensorShape": {"dim": [{"size": "3"}]}}}, "dtype": {"type": "DT_INT64"}}}, {"name": "model_83/tf.strided_slice_118/StridedSlice/end", "op": "Const", "attr": {"dtype": {"type": "DT_INT64"}, "value": {"tensor": {"dtype": "DT_INT64", "tensorShape": {"dim": [{"size": "3"}]}}}}}, {"name": "model_83/tf.strided_slice_118/ones_like", "op": "Const", "attr": {"dtype": {"type": "DT_INT64"}, "value": {"tensor": {"dtype": "DT_INT64", "tensorShape": {"dim": [{"size": "3"}]}}}}}, {"name": "model_83/tf.concat_130/concat/axis", "op": "Const", "attr": {"dtype": {"type": "DT_INT32"}, "value": {"tensor": {"dtype": "DT_INT32", "tensorShape": {}}}}}, {"name": "model_83/tf.math.multiply_1701/Mul/y", "op": "Const", "attr": {"value": {"tensor": {"dtype": "DT_FLOAT", "tensorShape": {"dim": [{"size": "1"}, {"size": "1"}, {"size": "33600"}]}}}, "dtype": {"type": "DT_FLOAT"}}}, {"name": "model_83/tf.nn.convolution_396/convolution/filter", "op": "Const", "attr": {"dtype": {"type": "DT_FLOAT"}, "value": {"tensor": {"dtype": "DT_FLOAT", "tensorShape": {"dim": [{"size": "3"}, {"size": "3"}, {"size": "64"}, {"size": "64"}]}}}}}, {"name": "model_83/tf.math.add_497/Add/y", "op": "Const", "attr": {"dtype": {"type": "DT_FLOAT"}, "value": {"tensor": {"dtype": "DT_FLOAT", "tensorShape": {"dim": [{"size": "64"}]}}}}}, {"name": "model_83/tf.nn.convolution_398/convolution/filter", "op": "Const", "attr": {"value": {"tensor": {"dtype": "DT_FLOAT", "tensorShape": {"dim": [{"size": "3"}, {"size": "3"}, {"size": "64"}, {"size": "64"}]}}}, "dtype": {"type": "DT_FLOAT"}}}, {"name": "model_83/tf.math.add_499/Add/y", "op": "Const", "attr": {"value": {"tensor": {"dtype": "DT_FLOAT", "tensorShape": {"dim": [{"size": "64"}]}}}, "dtype": {"type": "DT_FLOAT"}}}, {"name": "model_83/tf.nn.convolution_401/convolution/filter", "op": "Const", "attr": {"value": {"tensor": {"dtype": "DT_FLOAT", "tensorShape": {"dim": [{"size": "1"}, {"size": "1"}, {"size": "64"}, {"size": "64"}]}}}, "dtype": {"type": "DT_FLOAT"}}}, {"name": "model_83/tf.math.add_502/Add/y", "op": "Const", "attr": {"value": {"tensor": {"dtype": "DT_FLOAT", "tensorShape": {"dim": [{"size": "64"}]}}}, "dtype": {"type": "DT_FLOAT"}}}, {"name": "model_83/tf.nn.convolution_397/convolution/filter", "op": "Const", "attr": {"dtype": {"type": "DT_FLOAT"}, "value": {"tensor": {"dtype": "DT_FLOAT", "tensorShape": {"dim": [{"size": "3"}, {"size": "3"}, {"size": "64"}, {"size": "64"}]}}}}}, {"name": "model_83/tf.math.add_498/Add/y", "op": "Const", "attr": {"value": {"tensor": {"dtype": "DT_FLOAT", "tensorShape": {"dim": [{"size": "64"}]}}}, "dtype": {"type": "DT_FLOAT"}}}, {"name": "model_83/tf.nn.convolution_399/convolution/filter", "op": "Const", "attr": {"dtype": {"type": "DT_FLOAT"}, "value": {"tensor": {"dtype": "DT_FLOAT", "tensorShape": {"dim": [{"size": "3"}, {"size": "3"}, {"size": "64"}, {"size": "64"}]}}}}}, {"name": "model_83/tf.math.add_500/Add/y", "op": "Const", "attr": {"value": {"tensor": {"dtype": "DT_FLOAT", "tensorShape": {"dim": [{"size": "64"}]}}}, "dtype": {"type": "DT_FLOAT"}}}, {"name": "model_83/tf.nn.convolution_402/convolution/filter", "op": "Const", "attr": {"value": {"tensor": {"dtype": "DT_FLOAT", "tensorShape": {"dim": [{"size": "1"}, {"size": "1"}, {"size": "64"}, {"size": "2"}]}}}, "dtype": {"type": "DT_FLOAT"}}}, {"name": "model_83/tf.math.add_503/Add/y", "op": "Const", "attr": {"value": {"tensor": {"dtype": "DT_FLOAT", "tensorShape": {"dim": [{"size": "2"}]}}}, "dtype": {"type": "DT_FLOAT"}}}, {"name": "model_83/tf.concat_120/concat/axis", "op": "Const", "attr": {"dtype": {"type": "DT_INT32"}, "value": {"tensor": {"dtype": "DT_INT32", "tensorShape": {}}}}}, {"name": "model_83/tf.compat.v1.transpose_142/transpose/perm", "op": "Const", "attr": {"value": {"tensor": {"dtype": "DT_INT32", "tensorShape": {"dim": [{"size": "4"}]}}}, "dtype": {"type": "DT_INT32"}}}, {"name": "model_83/tf.reshape_77/Reshape/shape", "op": "Const", "attr": {"dtype": {"type": "DT_INT32"}, "value": {"tensor": {"dtype": "DT_INT32", "tensorShape": {"dim": [{"size": "3"}]}}}}}, {"name": "model_83/tf.nn.convolution_407/convolution/filter", "op": "Const", "attr": {"value": {"tensor": {"dtype": "DT_FLOAT", "tensorShape": {"dim": [{"size": "3"}, {"size": "3"}, {"size": "128"}, {"size": "64"}]}}}, "dtype": {"type": "DT_FLOAT"}}}, {"name": "model_83/tf.math.add_508/Add/y", "op": "Const", "attr": {"dtype": {"type": "DT_FLOAT"}, "value": {"tensor": {"dtype": "DT_FLOAT", "tensorShape": {"dim": [{"size": "64"}]}}}}}, {"name": "model_83/tf.nn.convolution_409/convolution/filter", "op": "Const", "attr": {"value": {"tensor": {"dtype": "DT_FLOAT", "tensorShape": {"dim": [{"size": "3"}, {"size": "3"}, {"size": "64"}, {"size": "64"}]}}}, "dtype": {"type": "DT_FLOAT"}}}, {"name": "model_83/tf.math.add_510/Add/y", "op": "Const", "attr": {"dtype": {"type": "DT_FLOAT"}, "value": {"tensor": {"dtype": "DT_FLOAT", "tensorShape": {"dim": [{"size": "64"}]}}}}}, {"name": "model_83/tf.nn.convolution_412/convolution/filter", "op": "Const", "attr": {"dtype": {"type": "DT_FLOAT"}, "value": {"tensor": {"dtype": "DT_FLOAT", "tensorShape": {"dim": [{"size": "1"}, {"size": "1"}, {"size": "64"}, {"size": "64"}]}}}}}, {"name": "model_83/tf.math.add_513/Add/y", "op": "Const", "attr": {"dtype": {"type": "DT_FLOAT"}, "value": {"tensor": {"dtype": "DT_FLOAT", "tensorShape": {"dim": [{"size": "64"}]}}}}}, {"name": "model_83/tf.nn.convolution_408/convolution/filter", "op": "Const", "attr": {"dtype": {"type": "DT_FLOAT"}, "value": {"tensor": {"dtype": "DT_FLOAT", "tensorShape": {"dim": [{"size": "3"}, {"size": "3"}, {"size": "128"}, {"size": "64"}]}}}}}, {"name": "model_83/tf.math.add_509/Add/y", "op": "Const", "attr": {"dtype": {"type": "DT_FLOAT"}, "value": {"tensor": {"dtype": "DT_FLOAT", "tensorShape": {"dim": [{"size": "64"}]}}}}}, {"name": "model_83/tf.nn.convolution_410/convolution/filter", "op": "Const", "attr": {"value": {"tensor": {"dtype": "DT_FLOAT", "tensorShape": {"dim": [{"size": "3"}, {"size": "3"}, {"size": "64"}, {"size": "64"}]}}}, "dtype": {"type": "DT_FLOAT"}}}, {"name": "model_83/tf.math.add_511/Add/y", "op": "Const", "attr": {"value": {"tensor": {"dtype": "DT_FLOAT", "tensorShape": {"dim": [{"size": "64"}]}}}, "dtype": {"type": "DT_FLOAT"}}}, {"name": "model_83/tf.nn.convolution_413/convolution/filter", "op": "Const", "attr": {"value": {"tensor": {"dtype": "DT_FLOAT", "tensorShape": {"dim": [{"size": "1"}, {"size": "1"}, {"size": "64"}, {"size": "2"}]}}}, "dtype": {"type": "DT_FLOAT"}}}, {"name": "model_83/tf.math.add_514/Add/y", "op": "Const", "attr": {"value": {"tensor": {"dtype": "DT_FLOAT", "tensorShape": {"dim": [{"size": "2"}]}}}, "dtype": {"type": "DT_FLOAT"}}}, {"name": "model_83/tf.concat_123/concat/axis", "op": "Const", "attr": {"dtype": {"type": "DT_INT32"}, "value": {"tensor": {"dtype": "DT_INT32", "tensorShape": {}}}}}, {"name": "model_83/tf.compat.v1.transpose_147/transpose/perm", "op": "Const", "attr": {"dtype": {"type": "DT_INT32"}, "value": {"tensor": {"dtype": "DT_INT32", "tensorShape": {"dim": [{"size": "4"}]}}}}}, {"name": "model_83/tf.reshape_80/Reshape/shape", "op": "Const", "attr": {"dtype": {"type": "DT_INT32"}, "value": {"tensor": {"dtype": "DT_INT32", "tensorShape": {"dim": [{"size": "3"}]}}}}}, {"name": "model_83/tf.nn.convolution_417/convolution/filter", "op": "Const", "attr": {"dtype": {"type": "DT_FLOAT"}, "value": {"tensor": {"dtype": "DT_FLOAT", "tensorShape": {"dim": [{"size": "3"}, {"size": "3"}, {"size": "256"}, {"size": "64"}]}}}}}, {"name": "model_83/tf.math.add_518/Add/y", "op": "Const", "attr": {"dtype": {"type": "DT_FLOAT"}, "value": {"tensor": {"dtype": "DT_FLOAT", "tensorShape": {"dim": [{"size": "64"}]}}}}}, {"name": "model_83/tf.nn.convolution_419/convolution/filter", "op": "Const", "attr": {"value": {"tensor": {"dtype": "DT_FLOAT", "tensorShape": {"dim": [{"size": "3"}, {"size": "3"}, {"size": "64"}, {"size": "64"}]}}}, "dtype": {"type": "DT_FLOAT"}}}, {"name": "model_83/tf.math.add_520/Add/y", "op": "Const", "attr": {"value": {"tensor": {"dtype": "DT_FLOAT", "tensorShape": {"dim": [{"size": "64"}]}}}, "dtype": {"type": "DT_FLOAT"}}}, {"name": "model_83/tf.nn.convolution_421/convolution/filter", "op": "Const", "attr": {"value": {"tensor": {"dtype": "DT_FLOAT", "tensorShape": {"dim": [{"size": "1"}, {"size": "1"}, {"size": "64"}, {"size": "64"}]}}}, "dtype": {"type": "DT_FLOAT"}}}, {"name": "model_83/tf.math.add_522/Add/y", "op": "Const", "attr": {"dtype": {"type": "DT_FLOAT"}, "value": {"tensor": {"dtype": "DT_FLOAT", "tensorShape": {"dim": [{"size": "64"}]}}}}}, {"name": "model_83/tf.strided_slice_114/ones_like/tensor", "op": "Const", "attr": {"value": {"tensor": {"dtype": "DT_INT64", "tensorShape": {"dim": [{"size": "4"}]}}}, "dtype": {"type": "DT_INT64"}}}, {"name": "model_83/tf.strided_slice_114/StridedSlice/end", "op": "Const", "attr": {"dtype": {"type": "DT_INT64"}, "value": {"tensor": {"dtype": "DT_INT64", "tensorShape": {"dim": [{"size": "4"}]}}}}}, {"name": "model_83/tf.strided_slice_114/ones_like", "op": "Const", "attr": {"value": {"tensor": {"dtype": "DT_INT64", "tensorShape": {"dim": [{"size": "4"}]}}}, "dtype": {"type": "DT_INT64"}}}, {"name": "model_83/tf.strided_slice_112/ones_like/tensor", "op": "Const", "attr": {"dtype": {"type": "DT_INT64"}, "value": {"tensor": {"dtype": "DT_INT64", "tensorShape": {"dim": [{"size": "4"}]}}}}}, {"name": "model_83/tf.strided_slice_112/StridedSlice/end", "op": "Const", "attr": {"value": {"tensor": {"dtype": "DT_INT64", "tensorShape": {"dim": [{"size": "4"}]}}}, "dtype": {"type": "DT_INT64"}}}, {"name": "model_83/tf.strided_slice_112/ones_like", "op": "Const", "attr": {"dtype": {"type": "DT_INT64"}, "value": {"tensor": {"dtype": "DT_INT64", "tensorShape": {"dim": [{"size": "4"}]}}}}}, {"name": "model_83/tf.strided_slice_110/ones_like/tensor", "op": "Const", "attr": {"dtype": {"type": "DT_INT64"}, "value": {"tensor": {"dtype": "DT_INT64", "tensorShape": {"dim": [{"size": "4"}]}}}}}, {"name": "model_83/tf.strided_slice_110/StridedSlice/end", "op": "Const", "attr": {"value": {"tensor": {"dtype": "DT_INT64", "tensorShape": {"dim": [{"size": "4"}]}}}, "dtype": {"type": "DT_INT64"}}}, {"name": "model_83/tf.strided_slice_110/ones_like", "op": "Const", "attr": {"dtype": {"type": "DT_INT64"}, "value": {"tensor": {"dtype": "DT_INT64", "tensorShape": {"dim": [{"size": "4"}]}}}}}, {"name": "model_83/tf.image.resize_11/resize/size", "op": "Const", "attr": {"value": {"tensor": {"dtype": "DT_INT32", "tensorShape": {"dim": [{"size": "2"}]}}}, "dtype": {"type": "DT_INT32"}}}, {"name": "model_83/tf.concat_117/concat/axis", "op": "Const", "attr": {"dtype": {"type": "DT_INT32"}, "value": {"tensor": {"dtype": "DT_INT32", "tensorShape": {}}}}}, {"name": "model_83/tf.nn.convolution_391/convolution/filter", "op": "Const", "attr": {"value": {"tensor": {"dtype": "DT_FLOAT", "tensorShape": {"dim": [{"size": "1"}, {"size": "1"}, {"size": "192"}, {"size": "64"}]}}}, "dtype": {"type": "DT_FLOAT"}}}, {"name": "model_83/tf.math.add_492/Add/y", "op": "Const", "attr": {"dtype": {"type": "DT_FLOAT"}, "value": {"tensor": {"dtype": "DT_FLOAT", "tensorShape": {"dim": [{"size": "64"}]}}}}}, {"name": "model_83/tf.strided_slice_111/ones_like/tensor", "op": "Const", "attr": {"value": {"tensor": {"dtype": "DT_INT64", "tensorShape": {"dim": [{"size": "4"}]}}}, "dtype": {"type": "DT_INT64"}}}, {"name": "model_83/tf.strided_slice_111/StridedSlice/end", "op": "Const", "attr": {"dtype": {"type": "DT_INT64"}, "value": {"tensor": {"dtype": "DT_INT64", "tensorShape": {"dim": [{"size": "4"}]}}}}}, {"name": "model_83/tf.strided_slice_111/ones_like", "op": "Const", "attr": {"dtype": {"type": "DT_INT64"}, "value": {"tensor": {"dtype": "DT_INT64", "tensorShape": {"dim": [{"size": "4"}]}}}}}, {"name": "model_83/tf.nn.convolution_392/convolution/filter", "op": "Const", "attr": {"value": {"tensor": {"dtype": "DT_FLOAT", "tensorShape": {"dim": [{"size": "3"}, {"size": "3"}, {"size": "32"}, {"size": "32"}]}}}, "dtype": {"type": "DT_FLOAT"}}}, {"name": "model_83/tf.math.add_493/Add/y", "op": "Const", "attr": {"value": {"tensor": {"dtype": "DT_FLOAT", "tensorShape": {"dim": [{"size": "32"}]}}}, "dtype": {"type": "DT_FLOAT"}}}, {"name": "model_83/tf.nn.convolution_393/convolution/filter", "op": "Const", "attr": {"value": {"tensor": {"dtype": "DT_FLOAT", "tensorShape": {"dim": [{"size": "3"}, {"size": "3"}, {"size": "32"}, {"size": "32"}]}}}, "dtype": {"type": "DT_FLOAT"}}}, {"name": "model_83/tf.math.add_494/Add/y", "op": "Const", "attr": {"value": {"tensor": {"dtype": "DT_FLOAT", "tensorShape": {"dim": [{"size": "32"}]}}}, "dtype": {"type": "DT_FLOAT"}}}, {"name": "model_83/tf.concat_118/concat/axis", "op": "Const", "attr": {"value": {"tensor": {"dtype": "DT_INT32", "tensorShape": {}}}, "dtype": {"type": "DT_INT32"}}}, {"name": "model_83/tf.nn.convolution_394/convolution/filter", "op": "Const", "attr": {"dtype": {"type": "DT_FLOAT"}, "value": {"tensor": {"dtype": "DT_FLOAT", "tensorShape": {"dim": [{"size": "1"}, {"size": "1"}, {"size": "96"}, {"size": "64"}]}}}}}, {"name": "model_83/tf.math.add_495/Add/y", "op": "Const", "attr": {"dtype": {"type": "DT_FLOAT"}, "value": {"tensor": {"dtype": "DT_FLOAT", "tensorShape": {"dim": [{"size": "64"}]}}}}}, {"name": "model_83/tf.compat.v1.pad_40/Pad/paddings", "op": "Const", "attr": {"dtype": {"type": "DT_INT32"}, "value": {"tensor": {"dtype": "DT_INT32", "tensorShape": {"dim": [{"size": "4"}, {"size": "2"}]}}}}}, {"name": "model_83/tf.nn.convolution_395/convolution/filter", "op": "Const", "attr": {"value": {"tensor": {"dtype": "DT_FLOAT", "tensorShape": {"dim": [{"size": "3"}, {"size": "3"}, {"size": "64"}, {"size": "64"}]}}}, "dtype": {"type": "DT_FLOAT"}}}, {"name": "model_83/tf.math.add_496/Add/y", "op": "Const", "attr": {"value": {"tensor": {"dtype": "DT_FLOAT", "tensorShape": {"dim": [{"size": "64"}]}}}, "dtype": {"type": "DT_FLOAT"}}}, {"name": "model_83/tf.strided_slice_108/ones_like/tensor", "op": "Const", "attr": {"dtype": {"type": "DT_INT64"}, "value": {"tensor": {"dtype": "DT_INT64", "tensorShape": {"dim": [{"size": "4"}]}}}}}, {"name": "model_83/tf.strided_slice_108/StridedSlice/end", "op": "Const", "attr": {"value": {"tensor": {"dtype": "DT_INT64", "tensorShape": {"dim": [{"size": "4"}]}}}, "dtype": {"type": "DT_INT64"}}}, {"name": "model_83/tf.strided_slice_108/ones_like", "op": "Const", "attr": {"value": {"tensor": {"dtype": "DT_INT64", "tensorShape": {"dim": [{"size": "4"}]}}}, "dtype": {"type": "DT_INT64"}}}, {"name": "model_83/tf.image.resize_10/resize/size", "op": "Const", "attr": {"dtype": {"type": "DT_INT32"}, "value": {"tensor": {"dtype": "DT_INT32", "tensorShape": {"dim": [{"size": "2"}]}}}}}, {"name": "model_83/tf.concat_115/concat/axis", "op": "Const", "attr": {"value": {"tensor": {"dtype": "DT_INT32", "tensorShape": {}}}, "dtype": {"type": "DT_INT32"}}}, {"name": "model_83/tf.nn.convolution_387/convolution/filter", "op": "Const", "attr": {"value": {"tensor": {"dtype": "DT_FLOAT", "tensorShape": {"dim": [{"size": "1"}, {"size": "1"}, {"size": "384"}, {"size": "128"}]}}}, "dtype": {"type": "DT_FLOAT"}}}, {"name": "model_83/tf.math.add_488/Add/y", "op": "Const", "attr": {"dtype": {"type": "DT_FLOAT"}, "value": {"tensor": {"dtype": "DT_FLOAT", "tensorShape": {"dim": [{"size": "128"}]}}}}}, {"name": "model_83/tf.strided_slice_109/ones_like/tensor", "op": "Const", "attr": {"dtype": {"type": "DT_INT64"}, "value": {"tensor": {"dtype": "DT_INT64", "tensorShape": {"dim": [{"size": "4"}]}}}}}, {"name": "model_83/tf.strided_slice_109/StridedSlice/end", "op": "Const", "attr": {"dtype": {"type": "DT_INT64"}, "value": {"tensor": {"dtype": "DT_INT64", "tensorShape": {"dim": [{"size": "4"}]}}}}}, {"name": "model_83/tf.strided_slice_109/ones_like", "op": "Const", "attr": {"dtype": {"type": "DT_INT64"}, "value": {"tensor": {"dtype": "DT_INT64", "tensorShape": {"dim": [{"size": "4"}]}}}}}, {"name": "model_83/tf.nn.convolution_388/convolution/filter", "op": "Const", "attr": {"dtype": {"type": "DT_FLOAT"}, "value": {"tensor": {"dtype": "DT_FLOAT", "tensorShape": {"dim": [{"size": "3"}, {"size": "3"}, {"size": "64"}, {"size": "64"}]}}}}}, {"name": "model_83/tf.math.add_489/Add/y", "op": "Const", "attr": {"dtype": {"type": "DT_FLOAT"}, "value": {"tensor": {"dtype": "DT_FLOAT", "tensorShape": {"dim": [{"size": "64"}]}}}}}, {"name": "model_83/tf.nn.convolution_389/convolution/filter", "op": "Const", "attr": {"value": {"tensor": {"dtype": "DT_FLOAT", "tensorShape": {"dim": [{"size": "3"}, {"size": "3"}, {"size": "64"}, {"size": "64"}]}}}, "dtype": {"type": "DT_FLOAT"}}}, {"name": "model_83/tf.math.add_490/Add/y", "op": "Const", "attr": {"dtype": {"type": "DT_FLOAT"}, "value": {"tensor": {"dtype": "DT_FLOAT", "tensorShape": {"dim": [{"size": "64"}]}}}}}, {"name": "model_83/tf.concat_116/concat/axis", "op": "Const", "attr": {"value": {"tensor": {"dtype": "DT_INT32", "tensorShape": {}}}, "dtype": {"type": "DT_INT32"}}}, {"name": "model_83/tf.nn.convolution_390/convolution/filter", "op": "Const", "attr": {"dtype": {"type": "DT_FLOAT"}, "value": {"tensor": {"dtype": "DT_FLOAT", "tensorShape": {"dim": [{"size": "1"}, {"size": "1"}, {"size": "192"}, {"size": "128"}]}}}}}, {"name": "model_83/tf.math.add_491/Add/y", "op": "Const", "attr": {"value": {"tensor": {"dtype": "DT_FLOAT", "tensorShape": {"dim": [{"size": "128"}]}}}, "dtype": {"type": "DT_FLOAT"}}}, {"name": "model_83/tf.concat_119/concat/axis", "op": "Const", "attr": {"value": {"tensor": {"dtype": "DT_INT32", "tensorShape": {}}}, "dtype": {"type": "DT_INT32"}}}, {"name": "model_83/tf.nn.convolution_400/convolution/filter", "op": "Const", "attr": {"dtype": {"type": "DT_FLOAT"}, "value": {"tensor": {"dtype": "DT_FLOAT", "tensorShape": {"dim": [{"size": "1"}, {"size": "1"}, {"size": "192"}, {"size": "128"}]}}}}}, {"name": "model_83/tf.math.add_501/Add/y", "op": "Const", "attr": {"dtype": {"type": "DT_FLOAT"}, "value": {"tensor": {"dtype": "DT_FLOAT", "tensorShape": {"dim": [{"size": "128"}]}}}}}, {"name": "model_83/tf.strided_slice_113/ones_like/tensor", "op": "Const", "attr": {"value": {"tensor": {"dtype": "DT_INT64", "tensorShape": {"dim": [{"size": "4"}]}}}, "dtype": {"type": "DT_INT64"}}}, {"name": "model_83/tf.strided_slice_113/StridedSlice/end", "op": "Const", "attr": {"dtype": {"type": "DT_INT64"}, "value": {"tensor": {"dtype": "DT_INT64", "tensorShape": {"dim": [{"size": "4"}]}}}}}, {"name": "model_83/tf.strided_slice_113/ones_like", "op": "Const", "attr": {"dtype": {"type": "DT_INT64"}, "value": {"tensor": {"dtype": "DT_INT64", "tensorShape": {"dim": [{"size": "4"}]}}}}}, {"name": "model_83/tf.nn.convolution_403/convolution/filter", "op": "Const", "attr": {"dtype": {"type": "DT_FLOAT"}, "value": {"tensor": {"dtype": "DT_FLOAT", "tensorShape": {"dim": [{"size": "3"}, {"size": "3"}, {"size": "64"}, {"size": "64"}]}}}}}, {"name": "model_83/tf.math.add_504/Add/y", "op": "Const", "attr": {"value": {"tensor": {"dtype": "DT_FLOAT", "tensorShape": {"dim": [{"size": "64"}]}}}, "dtype": {"type": "DT_FLOAT"}}}, {"name": "model_83/tf.nn.convolution_404/convolution/filter", "op": "Const", "attr": {"dtype": {"type": "DT_FLOAT"}, "value": {"tensor": {"dtype": "DT_FLOAT", "tensorShape": {"dim": [{"size": "3"}, {"size": "3"}, {"size": "64"}, {"size": "64"}]}}}}}, {"name": "model_83/tf.math.add_505/Add/y", "op": "Const", "attr": {"dtype": {"type": "DT_FLOAT"}, "value": {"tensor": {"dtype": "DT_FLOAT", "tensorShape": {"dim": [{"size": "64"}]}}}}}, {"name": "model_83/tf.concat_121/concat/axis", "op": "Const", "attr": {"dtype": {"type": "DT_INT32"}, "value": {"tensor": {"dtype": "DT_INT32", "tensorShape": {}}}}}, {"name": "model_83/tf.nn.convolution_405/convolution/filter", "op": "Const", "attr": {"value": {"tensor": {"dtype": "DT_FLOAT", "tensorShape": {"dim": [{"size": "1"}, {"size": "1"}, {"size": "192"}, {"size": "128"}]}}}, "dtype": {"type": "DT_FLOAT"}}}, {"name": "model_83/tf.math.add_506/Add/y", "op": "Const", "attr": {"value": {"tensor": {"dtype": "DT_FLOAT", "tensorShape": {"dim": [{"size": "128"}]}}}, "dtype": {"type": "DT_FLOAT"}}}, {"name": "model_83/tf.compat.v1.pad_41/Pad/paddings", "op": "Const", "attr": {"value": {"tensor": {"dtype": "DT_INT32", "tensorShape": {"dim": [{"size": "4"}, {"size": "2"}]}}}, "dtype": {"type": "DT_INT32"}}}, {"name": "model_83/tf.nn.convolution_406/convolution/filter", "op": "Const", "attr": {"value": {"tensor": {"dtype": "DT_FLOAT", "tensorShape": {"dim": [{"size": "3"}, {"size": "3"}, {"size": "128"}, {"size": "128"}]}}}, "dtype": {"type": "DT_FLOAT"}}}, {"name": "model_83/tf.math.add_507/Add/y", "op": "Const", "attr": {"dtype": {"type": "DT_FLOAT"}, "value": {"tensor": {"dtype": "DT_FLOAT", "tensorShape": {"dim": [{"size": "128"}]}}}}}, {"name": "model_83/tf.strided_slice_106/ones_like/tensor", "op": "Const", "attr": {"dtype": {"type": "DT_INT64"}, "value": {"tensor": {"dtype": "DT_INT64", "tensorShape": {"dim": [{"size": "4"}]}}}}}, {"name": "model_83/tf.strided_slice_106/StridedSlice/end", "op": "Const", "attr": {"value": {"tensor": {"dtype": "DT_INT64", "tensorShape": {"dim": [{"size": "4"}]}}}, "dtype": {"type": "DT_INT64"}}}, {"name": "model_83/tf.strided_slice_106/ones_like", "op": "Const", "attr": {"dtype": {"type": "DT_INT64"}, "value": {"tensor": {"dtype": "DT_INT64", "tensorShape": {"dim": [{"size": "4"}]}}}}}, {"name": "model_83/tf.strided_slice_104/ones_like/tensor", "op": "Const", "attr": {"dtype": {"type": "DT_INT64"}, "value": {"tensor": {"dtype": "DT_INT64", "tensorShape": {"dim": [{"size": "4"}]}}}}}, {"name": "model_83/tf.strided_slice_104/StridedSlice/end", "op": "Const", "attr": {"dtype": {"type": "DT_INT64"}, "value": {"tensor": {"dtype": "DT_INT64", "tensorShape": {"dim": [{"size": "4"}]}}}}}, {"name": "model_83/tf.strided_slice_104/ones_like", "op": "Const", "attr": {"value": {"tensor": {"dtype": "DT_INT64", "tensorShape": {"dim": [{"size": "4"}]}}}, "dtype": {"type": "DT_INT64"}}}, {"name": "model_83/tf.strided_slice_102/ones_like/tensor", "op": "Const", "attr": {"dtype": {"type": "DT_INT64"}, "value": {"tensor": {"dtype": "DT_INT64", "tensorShape": {"dim": [{"size": "4"}]}}}}}, {"name": "model_83/tf.strided_slice_102/StridedSlice/end", "op": "Const", "attr": {"value": {"tensor": {"dtype": "DT_INT64", "tensorShape": {"dim": [{"size": "4"}]}}}, "dtype": {"type": "DT_INT64"}}}, {"name": "model_83/tf.strided_slice_102/ones_like", "op": "Const", "attr": {"value": {"tensor": {"dtype": "DT_INT64", "tensorShape": {"dim": [{"size": "4"}]}}}, "dtype": {"type": "DT_INT64"}}}, {"name": "model_83/tf.strided_slice_100/ones_like/tensor", "op": "Const", "attr": {"value": {"tensor": {"dtype": "DT_INT64", "tensorShape": {"dim": [{"size": "4"}]}}}, "dtype": {"type": "DT_INT64"}}}, {"name": "model_83/tf.strided_slice_100/StridedSlice/end", "op": "Const", "attr": {"value": {"tensor": {"dtype": "DT_INT64", "tensorShape": {"dim": [{"size": "4"}]}}}, "dtype": {"type": "DT_INT64"}}}, {"name": "model_83/tf.strided_slice_100/ones_like", "op": "Const", "attr": {"value": {"tensor": {"dtype": "DT_INT64", "tensorShape": {"dim": [{"size": "4"}]}}}, "dtype": {"type": "DT_INT64"}}}, {"name": "model_83/tf.compat.v1.pad_35/Pad/paddings", "op": "Const", "attr": {"value": {"tensor": {"dtype": "DT_INT32", "tensorShape": {"dim": [{"size": "4"}, {"size": "2"}]}}}, "dtype": {"type": "DT_INT32"}}}, {"name": "model_83/tf.nn.convolution_360/convolution/filter", "op": "Const", "attr": {"dtype": {"type": "DT_FLOAT"}, "value": {"tensor": {"dtype": "DT_FLOAT", "tensorShape": {"dim": [{"size": "3"}, {"size": "3"}, {"size": "3"}, {"size": "16"}]}}}}}, {"name": "model_83/tf.math.add_449/Add/y", "op": "Const", "attr": {"value": {"tensor": {"dtype": "DT_FLOAT", "tensorShape": {"dim": [{"size": "16"}]}}}, "dtype": {"type": "DT_FLOAT"}}}, {"name": "model_83/tf.compat.v1.pad_36/Pad/paddings", "op": "Const", "attr": {"dtype": {"type": "DT_INT32"}, "value": {"tensor": {"dtype": "DT_INT32", "tensorShape": {"dim": [{"size": "4"}, {"size": "2"}]}}}}}, {"name": "model_83/tf.nn.convolution_361/convolution/filter", "op": "Const", "attr": {"dtype": {"type": "DT_FLOAT"}, "value": {"tensor": {"dtype": "DT_FLOAT", "tensorShape": {"dim": [{"size": "3"}, {"size": "3"}, {"size": "16"}, {"size": "32"}]}}}}}, {"name": "model_83/tf.math.add_450/Add/y", "op": "Const", "attr": {"dtype": {"type": "DT_FLOAT"}, "value": {"tensor": {"dtype": "DT_FLOAT", "tensorShape": {"dim": [{"size": "32"}]}}}}}, {"name": "model_83/tf.nn.convolution_362/convolution/filter", "op": "Const", "attr": {"dtype": {"type": "DT_FLOAT"}, "value": {"tensor": {"dtype": "DT_FLOAT", "tensorShape": {"dim": [{"size": "1"}, {"size": "1"}, {"size": "32"}, {"size": "32"}]}}}}}, {"name": "model_83/tf.math.add_451/Add/y", "op": "Const", "attr": {"dtype": {"type": "DT_FLOAT"}, "value": {"tensor": {"dtype": "DT_FLOAT", "tensorShape": {"dim": [{"size": "32"}]}}}}}, {"name": "model_83/tf.strided_slice_101/ones_like/tensor", "op": "Const", "attr": {"value": {"tensor": {"dtype": "DT_INT64", "tensorShape": {"dim": [{"size": "4"}]}}}, "dtype": {"type": "DT_INT64"}}}, {"name": "model_83/tf.strided_slice_101/StridedSlice/end", "op": "Const", "attr": {"dtype": {"type": "DT_INT64"}, "value": {"tensor": {"dtype": "DT_INT64", "tensorShape": {"dim": [{"size": "4"}]}}}}}, {"name": "model_83/tf.strided_slice_101/ones_like", "op": "Const", "attr": {"dtype": {"type": "DT_INT64"}, "value": {"tensor": {"dtype": "DT_INT64", "tensorShape": {"dim": [{"size": "4"}]}}}}}, {"name": "model_83/tf.nn.convolution_363/convolution/filter", "op": "Const", "attr": {"dtype": {"type": "DT_FLOAT"}, "value": {"tensor": {"dtype": "DT_FLOAT", "tensorShape": {"dim": [{"size": "3"}, {"size": "3"}, {"size": "16"}, {"size": "16"}]}}}}}, {"name": "model_83/tf.math.add_452/Add/y", "op": "Const", "attr": {"dtype": {"type": "DT_FLOAT"}, "value": {"tensor": {"dtype": "DT_FLOAT", "tensorShape": {"dim": [{"size": "16"}]}}}}}, {"name": "model_83/tf.nn.convolution_364/convolution/filter", "op": "Const", "attr": {"value": {"tensor": {"dtype": "DT_FLOAT", "tensorShape": {"dim": [{"size": "3"}, {"size": "3"}, {"size": "16"}, {"size": "16"}]}}}, "dtype": {"type": "DT_FLOAT"}}}, {"name": "model_83/tf.math.add_453/Add/y", "op": "Const", "attr": {"value": {"tensor": {"dtype": "DT_FLOAT", "tensorShape": {"dim": [{"size": "16"}]}}}, "dtype": {"type": "DT_FLOAT"}}}, {"name": "model_83/tf.concat_110/concat/axis", "op": "Const", "attr": {"dtype": {"type": "DT_INT32"}, "value": {"tensor": {"dtype": "DT_INT32", "tensorShape": {}}}}}, {"name": "model_83/tf.nn.convolution_365/convolution/filter", "op": "Const", "attr": {"value": {"tensor": {"dtype": "DT_FLOAT", "tensorShape": {"dim": [{"size": "1"}, {"size": "1"}, {"size": "48"}, {"size": "32"}]}}}, "dtype": {"type": "DT_FLOAT"}}}, {"name": "model_83/tf.math.add_456/Add/y", "op": "Const", "attr": {"dtype": {"type": "DT_FLOAT"}, "value": {"tensor": {"dtype": "DT_FLOAT", "tensorShape": {"dim": [{"size": "32"}]}}}}}, {"name": "model_83/tf.compat.v1.pad_37/Pad/paddings", "op": "Const", "attr": {"value": {"tensor": {"dtype": "DT_INT32", "tensorShape": {"dim": [{"size": "4"}, {"size": "2"}]}}}, "dtype": {"type": "DT_INT32"}}}, {"name": "model_83/tf.nn.convolution_366/convolution/filter", "op": "Const", "attr": {"dtype": {"type": "DT_FLOAT"}, "value": {"tensor": {"dtype": "DT_FLOAT", "tensorShape": {"dim": [{"size": "3"}, {"size": "3"}, {"size": "32"}, {"size": "64"}]}}}}}, {"name": "model_83/tf.math.add_457/Add/y", "op": "Const", "attr": {"dtype": {"type": "DT_FLOAT"}, "value": {"tensor": {"dtype": "DT_FLOAT", "tensorShape": {"dim": [{"size": "64"}]}}}}}, {"name": "model_83/tf.nn.convolution_367/convolution/filter", "op": "Const", "attr": {"value": {"tensor": {"dtype": "DT_FLOAT", "tensorShape": {"dim": [{"size": "1"}, {"size": "1"}, {"size": "64"}, {"size": "64"}]}}}, "dtype": {"type": "DT_FLOAT"}}}, {"name": "model_83/tf.math.add_458/Add/y", "op": "Const", "attr": {"dtype": {"type": "DT_FLOAT"}, "value": {"tensor": {"dtype": "DT_FLOAT", "tensorShape": {"dim": [{"size": "64"}]}}}}}, {"name": "model_83/tf.strided_slice_103/ones_like/tensor", "op": "Const", "attr": {"value": {"tensor": {"dtype": "DT_INT64", "tensorShape": {"dim": [{"size": "4"}]}}}, "dtype": {"type": "DT_INT64"}}}, {"name": "model_83/tf.strided_slice_103/StridedSlice/end", "op": "Const", "attr": {"dtype": {"type": "DT_INT64"}, "value": {"tensor": {"dtype": "DT_INT64", "tensorShape": {"dim": [{"size": "4"}]}}}}}, {"name": "model_83/tf.strided_slice_103/ones_like", "op": "Const", "attr": {"value": {"tensor": {"dtype": "DT_INT64", "tensorShape": {"dim": [{"size": "4"}]}}}, "dtype": {"type": "DT_INT64"}}}, {"name": "model_83/tf.nn.convolution_368/convolution/filter", "op": "Const", "attr": {"dtype": {"type": "DT_FLOAT"}, "value": {"tensor": {"dtype": "DT_FLOAT", "tensorShape": {"dim": [{"size": "3"}, {"size": "3"}, {"size": "32"}, {"size": "32"}]}}}}}, {"name": "model_83/tf.math.add_459/Add/y", "op": "Const", "attr": {"dtype": {"type": "DT_FLOAT"}, "value": {"tensor": {"dtype": "DT_FLOAT", "tensorShape": {"dim": [{"size": "32"}]}}}}}, {"name": "model_83/tf.nn.convolution_369/convolution/filter", "op": "Const", "attr": {"value": {"tensor": {"dtype": "DT_FLOAT", "tensorShape": {"dim": [{"size": "3"}, {"size": "3"}, {"size": "32"}, {"size": "32"}]}}}, "dtype": {"type": "DT_FLOAT"}}}, {"name": "model_83/tf.math.add_460/Add/y", "op": "Const", "attr": {"value": {"tensor": {"dtype": "DT_FLOAT", "tensorShape": {"dim": [{"size": "32"}]}}}, "dtype": {"type": "DT_FLOAT"}}}, {"name": "model_83/tf.nn.convolution_370/convolution/filter", "op": "Const", "attr": {"dtype": {"type": "DT_FLOAT"}, "value": {"tensor": {"dtype": "DT_FLOAT", "tensorShape": {"dim": [{"size": "3"}, {"size": "3"}, {"size": "32"}, {"size": "32"}]}}}}}, {"name": "model_83/tf.math.add_463/Add/y", "op": "Const", "attr": {"dtype": {"type": "DT_FLOAT"}, "value": {"tensor": {"dtype": "DT_FLOAT", "tensorShape": {"dim": [{"size": "32"}]}}}}}, {"name": "model_83/tf.nn.convolution_371/convolution/filter", "op": "Const", "attr": {"dtype": {"type": "DT_FLOAT"}, "value": {"tensor": {"dtype": "DT_FLOAT", "tensorShape": {"dim": [{"size": "3"}, {"size": "3"}, {"size": "32"}, {"size": "32"}]}}}}}, {"name": "model_83/tf.math.add_464/Add/y", "op": "Const", "attr": {"dtype": {"type": "DT_FLOAT"}, "value": {"tensor": {"dtype": "DT_FLOAT", "tensorShape": {"dim": [{"size": "32"}]}}}}}, {"name": "model_83/tf.concat_111/concat/axis", "op": "Const", "attr": {"dtype": {"type": "DT_INT32"}, "value": {"tensor": {"dtype": "DT_INT32", "tensorShape": {}}}}}, {"name": "model_83/tf.nn.convolution_372/convolution/filter", "op": "Const", "attr": {"dtype": {"type": "DT_FLOAT"}, "value": {"tensor": {"dtype": "DT_FLOAT", "tensorShape": {"dim": [{"size": "1"}, {"size": "1"}, {"size": "128"}, {"size": "64"}]}}}}}, {"name": "model_83/tf.math.add_467/Add/y", "op": "Const", "attr": {"value": {"tensor": {"dtype": "DT_FLOAT", "tensorShape": {"dim": [{"size": "64"}]}}}, "dtype": {"type": "DT_FLOAT"}}}, {"name": "model_83/tf.compat.v1.pad_38/Pad/paddings", "op": "Const", "attr": {"value": {"tensor": {"dtype": "DT_INT32", "tensorShape": {"dim": [{"size": "4"}, {"size": "2"}]}}}, "dtype": {"type": "DT_INT32"}}}, {"name": "model_83/tf.nn.convolution_373/convolution/filter", "op": "Const", "attr": {"dtype": {"type": "DT_FLOAT"}, "value": {"tensor": {"dtype": "DT_FLOAT", "tensorShape": {"dim": [{"size": "3"}, {"size": "3"}, {"size": "64"}, {"size": "128"}]}}}}}, {"name": "model_83/tf.math.add_468/Add/y", "op": "Const", "attr": {"value": {"tensor": {"dtype": "DT_FLOAT", "tensorShape": {"dim": [{"size": "128"}]}}}, "dtype": {"type": "DT_FLOAT"}}}, {"name": "model_83/tf.nn.convolution_374/convolution/filter", "op": "Const", "attr": {"value": {"tensor": {"dtype": "DT_FLOAT", "tensorShape": {"dim": [{"size": "1"}, {"size": "1"}, {"size": "128"}, {"size": "128"}]}}}, "dtype": {"type": "DT_FLOAT"}}}, {"name": "model_83/tf.math.add_469/Add/y", "op": "Const", "attr": {"value": {"tensor": {"dtype": "DT_FLOAT", "tensorShape": {"dim": [{"size": "128"}]}}}, "dtype": {"type": "DT_FLOAT"}}}, {"name": "model_83/tf.strided_slice_105/ones_like/tensor", "op": "Const", "attr": {"dtype": {"type": "DT_INT64"}, "value": {"tensor": {"dtype": "DT_INT64", "tensorShape": {"dim": [{"size": "4"}]}}}}}, {"name": "model_83/tf.strided_slice_105/StridedSlice/end", "op": "Const", "attr": {"dtype": {"type": "DT_INT64"}, "value": {"tensor": {"dtype": "DT_INT64", "tensorShape": {"dim": [{"size": "4"}]}}}}}, {"name": "model_83/tf.strided_slice_105/ones_like", "op": "Const", "attr": {"value": {"tensor": {"dtype": "DT_INT64", "tensorShape": {"dim": [{"size": "4"}]}}}, "dtype": {"type": "DT_INT64"}}}, {"name": "model_83/tf.nn.convolution_375/convolution/filter", "op": "Const", "attr": {"dtype": {"type": "DT_FLOAT"}, "value": {"tensor": {"dtype": "DT_FLOAT", "tensorShape": {"dim": [{"size": "3"}, {"size": "3"}, {"size": "64"}, {"size": "64"}]}}}}}, {"name": "model_83/tf.math.add_470/Add/y", "op": "Const", "attr": {"dtype": {"type": "DT_FLOAT"}, "value": {"tensor": {"dtype": "DT_FLOAT", "tensorShape": {"dim": [{"size": "64"}]}}}}}, {"name": "model_83/tf.nn.convolution_376/convolution/filter", "op": "Const", "attr": {"value": {"tensor": {"dtype": "DT_FLOAT", "tensorShape": {"dim": [{"size": "3"}, {"size": "3"}, {"size": "64"}, {"size": "64"}]}}}, "dtype": {"type": "DT_FLOAT"}}}, {"name": "model_83/tf.math.add_471/Add/y", "op": "Const", "attr": {"value": {"tensor": {"dtype": "DT_FLOAT", "tensorShape": {"dim": [{"size": "64"}]}}}, "dtype": {"type": "DT_FLOAT"}}}, {"name": "model_83/tf.nn.convolution_377/convolution/filter", "op": "Const", "attr": {"value": {"tensor": {"dtype": "DT_FLOAT", "tensorShape": {"dim": [{"size": "3"}, {"size": "3"}, {"size": "64"}, {"size": "64"}]}}}, "dtype": {"type": "DT_FLOAT"}}}, {"name": "model_83/tf.math.add_474/Add/y", "op": "Const", "attr": {"dtype": {"type": "DT_FLOAT"}, "value": {"tensor": {"dtype": "DT_FLOAT", "tensorShape": {"dim": [{"size": "64"}]}}}}}, {"name": "model_83/tf.nn.convolution_378/convolution/filter", "op": "Const", "attr": {"dtype": {"type": "DT_FLOAT"}, "value": {"tensor": {"dtype": "DT_FLOAT", "tensorShape": {"dim": [{"size": "3"}, {"size": "3"}, {"size": "64"}, {"size": "64"}]}}}}}, {"name": "model_83/tf.math.add_475/Add/y", "op": "Const", "attr": {"value": {"tensor": {"dtype": "DT_FLOAT", "tensorShape": {"dim": [{"size": "64"}]}}}, "dtype": {"type": "DT_FLOAT"}}}, {"name": "model_83/tf.concat_112/concat/axis", "op": "Const", "attr": {"dtype": {"type": "DT_INT32"}, "value": {"tensor": {"dtype": "DT_INT32", "tensorShape": {}}}}}, {"name": "model_83/tf.nn.convolution_379/convolution/filter", "op": "Const", "attr": {"value": {"tensor": {"dtype": "DT_FLOAT", "tensorShape": {"dim": [{"size": "1"}, {"size": "1"}, {"size": "256"}, {"size": "128"}]}}}, "dtype": {"type": "DT_FLOAT"}}}, {"name": "model_83/tf.math.add_478/Add/y", "op": "Const", "attr": {"value": {"tensor": {"dtype": "DT_FLOAT", "tensorShape": {"dim": [{"size": "128"}]}}}, "dtype": {"type": "DT_FLOAT"}}}, {"name": "model_83/tf.compat.v1.pad_39/Pad/paddings", "op": "Const", "attr": {"value": {"tensor": {"dtype": "DT_INT32", "tensorShape": {"dim": [{"size": "4"}, {"size": "2"}]}}}, "dtype": {"type": "DT_INT32"}}}, {"name": "model_83/tf.nn.convolution_380/convolution/filter", "op": "Const", "attr": {"dtype": {"type": "DT_FLOAT"}, "value": {"tensor": {"dtype": "DT_FLOAT", "tensorShape": {"dim": [{"size": "3"}, {"size": "3"}, {"size": "128"}, {"size": "256"}]}}}}}, {"name": "model_83/tf.math.add_479/Add/y", "op": "Const", "attr": {"dtype": {"type": "DT_FLOAT"}, "value": {"tensor": {"dtype": "DT_FLOAT", "tensorShape": {"dim": [{"size": "256"}]}}}}}, {"name": "model_83/tf.nn.convolution_381/convolution/filter", "op": "Const", "attr": {"value": {"tensor": {"dtype": "DT_FLOAT", "tensorShape": {"dim": [{"size": "1"}, {"size": "1"}, {"size": "256"}, {"size": "256"}]}}}, "dtype": {"type": "DT_FLOAT"}}}, {"name": "model_83/tf.math.add_480/Add/y", "op": "Const", "attr": {"dtype": {"type": "DT_FLOAT"}, "value": {"tensor": {"dtype": "DT_FLOAT", "tensorShape": {"dim": [{"size": "256"}]}}}}}, {"name": "model_83/tf.strided_slice_107/ones_like/tensor", "op": "Const", "attr": {"dtype": {"type": "DT_INT64"}, "value": {"tensor": {"dtype": "DT_INT64", "tensorShape": {"dim": [{"size": "4"}]}}}}}, {"name": "model_83/tf.strided_slice_107/StridedSlice/end", "op": "Const", "attr": {"value": {"tensor": {"dtype": "DT_INT64", "tensorShape": {"dim": [{"size": "4"}]}}}, "dtype": {"type": "DT_INT64"}}}, {"name": "model_83/tf.strided_slice_107/ones_like", "op": "Const", "attr": {"value": {"tensor": {"dtype": "DT_INT64", "tensorShape": {"dim": [{"size": "4"}]}}}, "dtype": {"type": "DT_INT64"}}}, {"name": "model_83/tf.nn.convolution_382/convolution/filter", "op": "Const", "attr": {"value": {"tensor": {"dtype": "DT_FLOAT", "tensorShape": {"dim": [{"size": "3"}, {"size": "3"}, {"size": "128"}, {"size": "128"}]}}}, "dtype": {"type": "DT_FLOAT"}}}, {"name": "model_83/tf.math.add_481/Add/y", "op": "Const", "attr": {"value": {"tensor": {"dtype": "DT_FLOAT", "tensorShape": {"dim": [{"size": "128"}]}}}, "dtype": {"type": "DT_FLOAT"}}}, {"name": "model_83/tf.nn.convolution_383/convolution/filter", "op": "Const", "attr": {"dtype": {"type": "DT_FLOAT"}, "value": {"tensor": {"dtype": "DT_FLOAT", "tensorShape": {"dim": [{"size": "3"}, {"size": "3"}, {"size": "128"}, {"size": "128"}]}}}}}, {"name": "model_83/tf.math.add_482/Add/y", "op": "Const", "attr": {"dtype": {"type": "DT_FLOAT"}, "value": {"tensor": {"dtype": "DT_FLOAT", "tensorShape": {"dim": [{"size": "128"}]}}}}}, {"name": "model_83/tf.concat_113/concat/axis", "op": "Const", "attr": {"dtype": {"type": "DT_INT32"}, "value": {"tensor": {"dtype": "DT_INT32", "tensorShape": {}}}}}, {"name": "model_83/tf.nn.convolution_384/convolution/filter", "op": "Const", "attr": {"dtype": {"type": "DT_FLOAT"}, "value": {"tensor": {"dtype": "DT_FLOAT", "tensorShape": {"dim": [{"size": "1"}, {"size": "1"}, {"size": "384"}, {"size": "256"}]}}}}}, {"name": "model_83/tf.math.add_485/Add/y", "op": "Const", "attr": {"dtype": {"type": "DT_FLOAT"}, "value": {"tensor": {"dtype": "DT_FLOAT", "tensorShape": {"dim": [{"size": "256"}]}}}}}, {"name": "model_83/tf.nn.convolution_385/convolution/filter", "op": "Const", "attr": {"dtype": {"type": "DT_FLOAT"}, "value": {"tensor": {"dtype": "DT_FLOAT", "tensorShape": {"dim": [{"size": "1"}, {"size": "1"}, {"size": "256"}, {"size": "128"}]}}}}}, {"name": "model_83/tf.math.add_486/Add/y", "op": "Const", "attr": {"value": {"tensor": {"dtype": "DT_FLOAT", "tensorShape": {"dim": [{"size": "128"}]}}}, "dtype": {"type": "DT_FLOAT"}}}, {"name": "model_83/tf.concat_114/concat/axis", "op": "Const", "attr": {"value": {"tensor": {"dtype": "DT_INT32", "tensorShape": {}}}, "dtype": {"type": "DT_INT32"}}}, {"name": "model_83/tf.nn.convolution_386/convolution/filter", "op": "Const", "attr": {"value": {"tensor": {"dtype": "DT_FLOAT", "tensorShape": {"dim": [{"size": "1"}, {"size": "1"}, {"size": "512"}, {"size": "256"}]}}}, "dtype": {"type": "DT_FLOAT"}}}, {"name": "model_83/tf.math.add_487/Add/y", "op": "Const", "attr": {"dtype": {"type": "DT_FLOAT"}, "value": {"tensor": {"dtype": "DT_FLOAT", "tensorShape": {"dim": [{"size": "256"}]}}}}}, {"name": "model_83/tf.concat_122/concat/axis", "op": "Const", "attr": {"value": {"tensor": {"dtype": "DT_INT32", "tensorShape": {}}}, "dtype": {"type": "DT_INT32"}}}, {"name": "model_83/tf.nn.convolution_411/convolution/filter", "op": "Const", "attr": {"value": {"tensor": {"dtype": "DT_FLOAT", "tensorShape": {"dim": [{"size": "1"}, {"size": "1"}, {"size": "384"}, {"size": "256"}]}}}, "dtype": {"type": "DT_FLOAT"}}}, {"name": "model_83/tf.math.add_512/Add/y", "op": "Const", "attr": {"value": {"tensor": {"dtype": "DT_FLOAT", "tensorShape": {"dim": [{"size": "256"}]}}}, "dtype": {"type": "DT_FLOAT"}}}, {"name": "model_83/tf.strided_slice_115/ones_like/tensor", "op": "Const", "attr": {"value": {"tensor": {"dtype": "DT_INT64", "tensorShape": {"dim": [{"size": "4"}]}}}, "dtype": {"type": "DT_INT64"}}}, {"name": "model_83/tf.strided_slice_115/StridedSlice/end", "op": "Const", "attr": {"value": {"tensor": {"dtype": "DT_INT64", "tensorShape": {"dim": [{"size": "4"}]}}}, "dtype": {"type": "DT_INT64"}}}, {"name": "model_83/tf.strided_slice_115/ones_like", "op": "Const", "attr": {"dtype": {"type": "DT_INT64"}, "value": {"tensor": {"dtype": "DT_INT64", "tensorShape": {"dim": [{"size": "4"}]}}}}}, {"name": "model_83/tf.nn.convolution_414/convolution/filter", "op": "Const", "attr": {"dtype": {"type": "DT_FLOAT"}, "value": {"tensor": {"dtype": "DT_FLOAT", "tensorShape": {"dim": [{"size": "3"}, {"size": "3"}, {"size": "128"}, {"size": "128"}]}}}}}, {"name": "model_83/tf.math.add_515/Add/y", "op": "Const", "attr": {"value": {"tensor": {"dtype": "DT_FLOAT", "tensorShape": {"dim": [{"size": "128"}]}}}, "dtype": {"type": "DT_FLOAT"}}}, {"name": "model_83/tf.nn.convolution_415/convolution/filter", "op": "Const", "attr": {"dtype": {"type": "DT_FLOAT"}, "value": {"tensor": {"dtype": "DT_FLOAT", "tensorShape": {"dim": [{"size": "3"}, {"size": "3"}, {"size": "128"}, {"size": "128"}]}}}}}, {"name": "model_83/tf.math.add_516/Add/y", "op": "Const", "attr": {"value": {"tensor": {"dtype": "DT_FLOAT", "tensorShape": {"dim": [{"size": "128"}]}}}, "dtype": {"type": "DT_FLOAT"}}}, {"name": "model_83/tf.concat_124/concat/axis", "op": "Const", "attr": {"value": {"tensor": {"dtype": "DT_INT32", "tensorShape": {}}}, "dtype": {"type": "DT_INT32"}}}, {"name": "model_83/tf.nn.convolution_416/convolution/filter", "op": "Const", "attr": {"dtype": {"type": "DT_FLOAT"}, "value": {"tensor": {"dtype": "DT_FLOAT", "tensorShape": {"dim": [{"size": "1"}, {"size": "1"}, {"size": "384"}, {"size": "256"}]}}}}}, {"name": "model_83/tf.math.add_517/Add/y", "op": "Const", "attr": {"value": {"tensor": {"dtype": "DT_FLOAT", "tensorShape": {"dim": [{"size": "256"}]}}}, "dtype": {"type": "DT_FLOAT"}}}, {"name": "model_83/tf.nn.convolution_418/convolution/filter", "op": "Const", "attr": {"value": {"tensor": {"dtype": "DT_FLOAT", "tensorShape": {"dim": [{"size": "3"}, {"size": "3"}, {"size": "256"}, {"size": "64"}]}}}, "dtype": {"type": "DT_FLOAT"}}}, {"name": "model_83/tf.math.add_519/Add/y", "op": "Const", "attr": {"dtype": {"type": "DT_FLOAT"}, "value": {"tensor": {"dtype": "DT_FLOAT", "tensorShape": {"dim": [{"size": "64"}]}}}}}, {"name": "model_83/tf.nn.convolution_420/convolution/filter", "op": "Const", "attr": {"value": {"tensor": {"dtype": "DT_FLOAT", "tensorShape": {"dim": [{"size": "3"}, {"size": "3"}, {"size": "64"}, {"size": "64"}]}}}, "dtype": {"type": "DT_FLOAT"}}}, {"name": "model_83/tf.math.add_521/Add/y", "op": "Const", "attr": {"value": {"tensor": {"dtype": "DT_FLOAT", "tensorShape": {"dim": [{"size": "64"}]}}}, "dtype": {"type": "DT_FLOAT"}}}, {"name": "model_83/tf.nn.convolution_422/convolution/filter", "op": "Const", "attr": {"dtype": {"type": "DT_FLOAT"}, "value": {"tensor": {"dtype": "DT_FLOAT", "tensorShape": {"dim": [{"size": "1"}, {"size": "1"}, {"size": "64"}, {"size": "2"}]}}}}}, {"name": "model_83/tf.math.add_523/Add/y", "op": "Const", "attr": {"value": {"tensor": {"dtype": "DT_FLOAT", "tensorShape": {"dim": [{"size": "2"}]}}}, "dtype": {"type": "DT_FLOAT"}}}, {"name": "model_83/tf.concat_125/concat/axis", "op": "Const", "attr": {"value": {"tensor": {"dtype": "DT_INT32", "tensorShape": {}}}, "dtype": {"type": "DT_INT32"}}}, {"name": "model_83/tf.compat.v1.transpose_152/transpose/perm", "op": "Const", "attr": {"dtype": {"type": "DT_INT32"}, "value": {"tensor": {"dtype": "DT_INT32", "tensorShape": {"dim": [{"size": "4"}]}}}}}, {"name": "model_83/tf.reshape_83/Reshape/shape", "op": "Const", "attr": {"dtype": {"type": "DT_INT32"}, "value": {"tensor": {"dtype": "DT_INT32", "tensorShape": {"dim": [{"size": "3"}]}}}}}, {"name": "model_83/tf.concat_126/concat/axis", "op": "Const", "attr": {"dtype": {"type": "DT_INT32"}, "value": {"tensor": {"dtype": "DT_INT32", "tensorShape": {}}}}}, {"name": "model_83/tf.strided_slice_117/StridedSlice/begin", "op": "Const", "attr": {"value": {"tensor": {"dtype": "DT_INT64", "tensorShape": {"dim": [{"size": "3"}]}}}, "dtype": {"type": "DT_INT64"}}}, {"name": "model_83/tf.strided_slice_117/StridedSlice/end", "op": "Const", "attr": {"value": {"tensor": {"dtype": "DT_INT64", "tensorShape": {"dim": [{"size": "3"}]}}}, "dtype": {"type": "DT_INT64"}}}, {"name": "model_83/tf.strided_slice_117/StridedSlice/strides", "op": "Const", "attr": {"dtype": {"type": "DT_INT64"}, "value": {"tensor": {"dtype": "DT_INT64", "tensorShape": {"dim": [{"size": "3"}]}}}}}, {"name": "model_83/output0/concat/axis", "op": "Const", "attr": {"value": {"tensor": {"dtype": "DT_INT32", "tensorShape": {}}}, "dtype": {"type": "DT_INT32"}}}, {"name": "x", "op": "Placeholder", "attr": {"shape": {"shape": {"dim": [{"size": "1"}, {"size": "1280"}, {"size": "1280"}, {"size": "3"}]}}, "dtype": {"type": "DT_FLOAT"}}}, {"name": "model_83/tf.compat.v1.pad_35/Pad", "op": "Pad", "input": ["x", "model_83/tf.compat.v1.pad_35/Pad/paddings"], "attr": {"T": {"type": "DT_FLOAT"}, "Tpaddings": {"type": "DT_INT32"}}}, {"name": "model_83/tf.math.add_449/Add", "op": "_FusedConv2D", "input": ["model_83/tf.compat.v1.pad_35/Pad", "model_83/tf.nn.convolution_360/convolution/filter", "model_83/tf.math.add_449/Add/y"], "device": "/device:CPU:0", "attr": {"use_cudnn_on_gpu": {"b": true}, "explicit_paddings": {"list": {}}, "T": {"type": "DT_FLOAT"}, "filter_format": {"s": "SFdJTw=="}, "num_host_args": {"i": "0"}, "dilations": {"list": {"i": ["1", "1", "1", "1"]}}, "TArgs": {"list": {"type": ["DT_FLOAT"]}}, "fused_ops": {"list": {"s": ["Qmlhc0FkZA=="]}}, "data_format": {"s": "TkhXQw=="}, "strides": {"list": {"i": ["1", "2", "2", "1"]}}, "num_args": {"i": "1"}, "leakyrelu_alpha": {"f": 0.2}, "padding": {"s": "VkFMSUQ="}, "epsilon": {"f": 0.0}}}, {"name": "model_83/tf.math.sigmoid_330/Sigmoid", "op": "Sigmoid", "input": ["model_83/tf.math.add_449/Add"], "attr": {"T": {"type": "DT_FLOAT"}}}, {"name": "model_83/tf.math.multiply_1452/Mul", "op": "Mul", "input": ["model_83/tf.math.add_449/Add", "model_83/tf.math.sigmoid_330/Sigmoid"], "attr": {"T": {"type": "DT_FLOAT"}}}, {"name": "model_83/tf.compat.v1.pad_36/Pad", "op": "Pad", "input": ["model_83/tf.math.multiply_1452/Mul", "model_83/tf.compat.v1.pad_36/Pad/paddings"], "attr": {"T": {"type": "DT_FLOAT"}, "Tpaddings": {"type": "DT_INT32"}}}, {"name": "model_83/tf.math.add_450/Add", "op": "_FusedConv2D", "input": ["model_83/tf.compat.v1.pad_36/Pad", "model_83/tf.nn.convolution_361/convolution/filter", "model_83/tf.math.add_450/Add/y"], "device": "/device:CPU:0", "attr": {"use_cudnn_on_gpu": {"b": true}, "T": {"type": "DT_FLOAT"}, "leakyrelu_alpha": {"f": 0.2}, "dilations": {"list": {"i": ["1", "1", "1", "1"]}}, "strides": {"list": {"i": ["1", "2", "2", "1"]}}, "data_format": {"s": "TkhXQw=="}, "explicit_paddings": {"list": {}}, "padding": {"s": "VkFMSUQ="}, "fused_ops": {"list": {"s": ["Qmlhc0FkZA=="]}}, "TArgs": {"list": {"type": ["DT_FLOAT"]}}, "num_host_args": {"i": "0"}, "epsilon": {"f": 0.0}, "num_args": {"i": "1"}, "filter_format": {"s": "SFdJTw=="}}}, {"name": "model_83/tf.math.sigmoid_331/Sigmoid", "op": "Sigmoid", "input": ["model_83/tf.math.add_450/Add"], "attr": {"T": {"type": "DT_FLOAT"}}}, {"name": "model_83/tf.math.multiply_1456/Mul", "op": "Mul", "input": ["model_83/tf.math.add_450/Add", "model_83/tf.math.sigmoid_331/Sigmoid"], "attr": {"T": {"type": "DT_FLOAT"}}}, {"name": "model_83/tf.math.add_451/Add", "op": "_FusedConv2D", "input": ["model_83/tf.math.multiply_1456/Mul", "model_83/tf.nn.convolution_362/convolution/filter", "model_83/tf.math.add_451/Add/y"], "device": "/device:CPU:0", "attr": {"dilations": {"list": {"i": ["1", "1", "1", "1"]}}, "TArgs": {"list": {"type": ["DT_FLOAT"]}}, "filter_format": {"s": "SFdJTw=="}, "padding": {"s": "U0FNRQ=="}, "num_host_args": {"i": "0"}, "strides": {"list": {"i": ["1", "1", "1", "1"]}}, "num_args": {"i": "1"}, "epsilon": {"f": 0.0}, "leakyrelu_alpha": {"f": 0.2}, "data_format": {"s": "TkhXQw=="}, "fused_ops": {"list": {"s": ["Qmlhc0FkZA=="]}}, "use_cudnn_on_gpu": {"b": true}, "explicit_paddings": {"list": {}}, "T": {"type": "DT_FLOAT"}}}, {"name": "model_83/tf.math.sigmoid_332/Sigmoid", "op": "Sigmoid", "input": ["model_83/tf.math.add_451/Add"], "attr": {"T": {"type": "DT_FLOAT"}}}, {"name": "model_83/tf.math.multiply_1460/Mul", "op": "Mul", "input": ["model_83/tf.math.add_451/Add", "model_83/tf.math.sigmoid_332/Sigmoid"], "attr": {"T": {"type": "DT_FLOAT"}}}, {"name": "model_83/tf.strided_slice_100/StridedSlice", "op": "StridedSlice", "input": ["model_83/tf.math.multiply_1460/Mul", "model_83/tf.strided_slice_100/ones_like/tensor", "model_83/tf.strided_slice_100/StridedSlice/end", "model_83/tf.strided_slice_100/ones_like"], "attr": {"Index": {"type": "DT_INT64"}, "new_axis_mask": {"i": "0"}, "begin_mask": {"i": "15"}, "end_mask": {"i": "7"}, "T": {"type": "DT_FLOAT"}, "shrink_axis_mask": {"i": "0"}, "ellipsis_mask": {"i": "0"}}}, {"name": "model_83/tf.strided_slice_101/StridedSlice", "op": "StridedSlice", "input": ["model_83/tf.math.multiply_1460/Mul", "model_83/tf.strided_slice_101/ones_like/tensor", "model_83/tf.strided_slice_101/StridedSlice/end", "model_83/tf.strided_slice_101/ones_like"], "attr": {"shrink_axis_mask": {"i": "0"}, "new_axis_mask": {"i": "0"}, "begin_mask": {"i": "7"}, "T": {"type": "DT_FLOAT"}, "ellipsis_mask": {"i": "0"}, "end_mask": {"i": "7"}, "Index": {"type": "DT_INT64"}}}, {"name": "model_83/tf.math.add_452/Add", "op": "_FusedConv2D", "input": ["model_83/tf.strided_slice_101/StridedSlice", "model_83/tf.nn.convolution_363/convolution/filter", "model_83/tf.math.add_452/Add/y"], "device": "/device:CPU:0", "attr": {"epsilon": {"f": 0.0}, "dilations": {"list": {"i": ["1", "1", "1", "1"]}}, "num_args": {"i": "1"}, "padding": {"s": "U0FNRQ=="}, "TArgs": {"list": {"type": ["DT_FLOAT"]}}, "filter_format": {"s": "SFdJTw=="}, "use_cudnn_on_gpu": {"b": true}, "fused_ops": {"list": {"s": ["Qmlhc0FkZA=="]}}, "strides": {"list": {"i": ["1", "1", "1", "1"]}}, "explicit_paddings": {"list": {}}, "data_format": {"s": "TkhXQw=="}, "T": {"type": "DT_FLOAT"}, "leakyrelu_alpha": {"f": 0.2}, "num_host_args": {"i": "0"}}}, {"name": "model_83/tf.math.sigmoid_333/Sigmoid", "op": "Sigmoid", "input": ["model_83/tf.math.add_452/Add"], "attr": {"T": {"type": "DT_FLOAT"}}}, {"name": "model_83/tf.math.multiply_1464/Mul", "op": "Mul", "input": ["model_83/tf.math.add_452/Add", "model_83/tf.math.sigmoid_333/Sigmoid"], "attr": {"T": {"type": "DT_FLOAT"}}}, {"name": "model_83/tf.math.add_453/Add", "op": "_FusedConv2D", "input": ["model_83/tf.math.multiply_1464/Mul", "model_83/tf.nn.convolution_364/convolution/filter", "model_83/tf.math.add_453/Add/y"], "device": "/device:CPU:0", "attr": {"T": {"type": "DT_FLOAT"}, "num_host_args": {"i": "0"}, "TArgs": {"list": {"type": ["DT_FLOAT"]}}, "strides": {"list": {"i": ["1", "1", "1", "1"]}}, "filter_format": {"s": "SFdJTw=="}, "padding": {"s": "U0FNRQ=="}, "epsilon": {"f": 0.0}, "fused_ops": {"list": {"s": ["Qmlhc0FkZA=="]}}, "num_args": {"i": "1"}, "data_format": {"s": "TkhXQw=="}, "dilations": {"list": {"i": ["1", "1", "1", "1"]}}, "explicit_paddings": {"list": {}}, "leakyrelu_alpha": {"f": 0.2}, "use_cudnn_on_gpu": {"b": true}}}, {"name": "model_83/tf.math.sigmoid_334/Sigmoid", "op": "Sigmoid", "input": ["model_83/tf.math.add_453/Add"], "attr": {"T": {"type": "DT_FLOAT"}}}, {"name": "model_83/tf.math.multiply_1468/Mul", "op": "Mul", "input": ["model_83/tf.math.add_453/Add", "model_83/tf.math.sigmoid_334/Sigmoid"], "attr": {"T": {"type": "DT_FLOAT"}}}, {"name": "model_83/tf.math.add_455/Add", "op": "AddV2", "input": ["model_83/tf.strided_slice_101/StridedSlice", "model_83/tf.math.multiply_1468/Mul"], "attr": {"T": {"type": "DT_FLOAT"}}}, {"name": "model_83/tf.concat_110/concat", "op": "ConcatV2", "input": ["model_83/tf.strided_slice_100/StridedSlice", "model_83/tf.strided_slice_101/StridedSlice", "model_83/tf.math.add_455/Add", "model_83/tf.concat_110/concat/axis"], "attr": {"Tidx": {"type": "DT_INT32"}, "T": {"type": "DT_FLOAT"}, "N": {"i": "3"}}}, {"name": "model_83/tf.math.add_456/Add", "op": "_FusedConv2D", "input": ["model_83/tf.concat_110/concat", "model_83/tf.nn.convolution_365/convolution/filter", "model_83/tf.math.add_456/Add/y"], "device": "/device:CPU:0", "attr": {"strides": {"list": {"i": ["1", "1", "1", "1"]}}, "padding": {"s": "U0FNRQ=="}, "TArgs": {"list": {"type": ["DT_FLOAT"]}}, "dilations": {"list": {"i": ["1", "1", "1", "1"]}}, "explicit_paddings": {"list": {}}, "filter_format": {"s": "SFdJTw=="}, "leakyrelu_alpha": {"f": 0.2}, "fused_ops": {"list": {"s": ["Qmlhc0FkZA=="]}}, "use_cudnn_on_gpu": {"b": true}, "data_format": {"s": "TkhXQw=="}, "num_host_args": {"i": "0"}, "T": {"type": "DT_FLOAT"}, "epsilon": {"f": 0.0}, "num_args": {"i": "1"}}}, {"name": "model_83/tf.math.sigmoid_335/Sigmoid", "op": "Sigmoid", "input": ["model_83/tf.math.add_456/Add"], "attr": {"T": {"type": "DT_FLOAT"}}}, {"name": "model_83/tf.math.multiply_1474/Mul", "op": "Mul", "input": ["model_83/tf.math.add_456/Add", "model_83/tf.math.sigmoid_335/Sigmoid"], "attr": {"T": {"type": "DT_FLOAT"}}}, {"name": "model_83/tf.compat.v1.pad_37/Pad", "op": "Pad", "input": ["model_83/tf.math.multiply_1474/Mul", "model_83/tf.compat.v1.pad_37/Pad/paddings"], "attr": {"T": {"type": "DT_FLOAT"}, "Tpaddings": {"type": "DT_INT32"}}}, {"name": "model_83/tf.math.add_457/Add", "op": "_FusedConv2D", "input": ["model_83/tf.compat.v1.pad_37/Pad", "model_83/tf.nn.convolution_366/convolution/filter", "model_83/tf.math.add_457/Add/y"], "device": "/device:CPU:0", "attr": {"filter_format": {"s": "SFdJTw=="}, "strides": {"list": {"i": ["1", "2", "2", "1"]}}, "leakyrelu_alpha": {"f": 0.2}, "num_host_args": {"i": "0"}, "T": {"type": "DT_FLOAT"}, "fused_ops": {"list": {"s": ["Qmlhc0FkZA=="]}}, "dilations": {"list": {"i": ["1", "1", "1", "1"]}}, "use_cudnn_on_gpu": {"b": true}, "padding": {"s": "VkFMSUQ="}, "data_format": {"s": "TkhXQw=="}, "num_args": {"i": "1"}, "explicit_paddings": {"list": {}}, "TArgs": {"list": {"type": ["DT_FLOAT"]}}, "epsilon": {"f": 0.0}}}, {"name": "model_83/tf.math.sigmoid_336/Sigmoid", "op": "Sigmoid", "input": ["model_83/tf.math.add_457/Add"], "attr": {"T": {"type": "DT_FLOAT"}}}, {"name": "model_83/tf.math.multiply_1478/Mul", "op": "Mul", "input": ["model_83/tf.math.add_457/Add", "model_83/tf.math.sigmoid_336/Sigmoid"], "attr": {"T": {"type": "DT_FLOAT"}}}, {"name": "model_83/tf.math.add_458/Add", "op": "_FusedConv2D", "input": ["model_83/tf.math.multiply_1478/Mul", "model_83/tf.nn.convolution_367/convolution/filter", "model_83/tf.math.add_458/Add/y"], "device": "/device:CPU:0", "attr": {"TArgs": {"list": {"type": ["DT_FLOAT"]}}, "fused_ops": {"list": {"s": ["Qmlhc0FkZA=="]}}, "use_cudnn_on_gpu": {"b": true}, "epsilon": {"f": 0.0}, "filter_format": {"s": "SFdJTw=="}, "data_format": {"s": "TkhXQw=="}, "leakyrelu_alpha": {"f": 0.2}, "padding": {"s": "U0FNRQ=="}, "T": {"type": "DT_FLOAT"}, "dilations": {"list": {"i": ["1", "1", "1", "1"]}}, "explicit_paddings": {"list": {}}, "num_host_args": {"i": "0"}, "num_args": {"i": "1"}, "strides": {"list": {"i": ["1", "1", "1", "1"]}}}}, {"name": "model_83/tf.math.sigmoid_337/Sigmoid", "op": "Sigmoid", "input": ["model_83/tf.math.add_458/Add"], "attr": {"T": {"type": "DT_FLOAT"}}}, {"name": "model_83/tf.math.multiply_1482/Mul", "op": "Mul", "input": ["model_83/tf.math.add_458/Add", "model_83/tf.math.sigmoid_337/Sigmoid"], "attr": {"T": {"type": "DT_FLOAT"}}}, {"name": "model_83/tf.strided_slice_102/StridedSlice", "op": "StridedSlice", "input": ["model_83/tf.math.multiply_1482/Mul", "model_83/tf.strided_slice_102/ones_like/tensor", "model_83/tf.strided_slice_102/StridedSlice/end", "model_83/tf.strided_slice_102/ones_like"], "attr": {"shrink_axis_mask": {"i": "0"}, "T": {"type": "DT_FLOAT"}, "begin_mask": {"i": "15"}, "Index": {"type": "DT_INT64"}, "end_mask": {"i": "7"}, "ellipsis_mask": {"i": "0"}, "new_axis_mask": {"i": "0"}}}, {"name": "model_83/tf.strided_slice_103/StridedSlice", "op": "StridedSlice", "input": ["model_83/tf.math.multiply_1482/Mul", "model_83/tf.strided_slice_103/ones_like/tensor", "model_83/tf.strided_slice_103/StridedSlice/end", "model_83/tf.strided_slice_103/ones_like"], "attr": {"shrink_axis_mask": {"i": "0"}, "T": {"type": "DT_FLOAT"}, "ellipsis_mask": {"i": "0"}, "end_mask": {"i": "7"}, "new_axis_mask": {"i": "0"}, "Index": {"type": "DT_INT64"}, "begin_mask": {"i": "7"}}}, {"name": "model_83/tf.math.add_459/Add", "op": "_FusedConv2D", "input": ["model_83/tf.strided_slice_103/StridedSlice", "model_83/tf.nn.convolution_368/convolution/filter", "model_83/tf.math.add_459/Add/y"], "device": "/device:CPU:0", "attr": {"num_host_args": {"i": "0"}, "data_format": {"s": "TkhXQw=="}, "dilations": {"list": {"i": ["1", "1", "1", "1"]}}, "strides": {"list": {"i": ["1", "1", "1", "1"]}}, "filter_format": {"s": "SFdJTw=="}, "epsilon": {"f": 0.0}, "padding": {"s": "U0FNRQ=="}, "explicit_paddings": {"list": {}}, "use_cudnn_on_gpu": {"b": true}, "leakyrelu_alpha": {"f": 0.2}, "fused_ops": {"list": {"s": ["Qmlhc0FkZA=="]}}, "num_args": {"i": "1"}, "T": {"type": "DT_FLOAT"}, "TArgs": {"list": {"type": ["DT_FLOAT"]}}}}, {"name": "model_83/tf.math.sigmoid_338/Sigmoid", "op": "Sigmoid", "input": ["model_83/tf.math.add_459/Add"], "attr": {"T": {"type": "DT_FLOAT"}}}, {"name": "model_83/tf.math.multiply_1486/Mul", "op": "Mul", "input": ["model_83/tf.math.add_459/Add", "model_83/tf.math.sigmoid_338/Sigmoid"], "attr": {"T": {"type": "DT_FLOAT"}}}, {"name": "model_83/tf.math.add_460/Add", "op": "_FusedConv2D", "input": ["model_83/tf.math.multiply_1486/Mul", "model_83/tf.nn.convolution_369/convolution/filter", "model_83/tf.math.add_460/Add/y"], "device": "/device:CPU:0", "attr": {"explicit_paddings": {"list": {}}, "leakyrelu_alpha": {"f": 0.2}, "num_args": {"i": "1"}, "use_cudnn_on_gpu": {"b": true}, "fused_ops": {"list": {"s": ["Qmlhc0FkZA=="]}}, "padding": {"s": "U0FNRQ=="}, "num_host_args": {"i": "0"}, "T": {"type": "DT_FLOAT"}, "epsilon": {"f": 0.0}, "TArgs": {"list": {"type": ["DT_FLOAT"]}}, "data_format": {"s": "TkhXQw=="}, "filter_format": {"s": "SFdJTw=="}, "strides": {"list": {"i": ["1", "1", "1", "1"]}}, "dilations": {"list": {"i": ["1", "1", "1", "1"]}}}}, {"name": "model_83/tf.math.sigmoid_339/Sigmoid", "op": "Sigmoid", "input": ["model_83/tf.math.add_460/Add"], "attr": {"T": {"type": "DT_FLOAT"}}}, {"name": "model_83/tf.math.multiply_1490/Mul", "op": "Mul", "input": ["model_83/tf.math.add_460/Add", "model_83/tf.math.sigmoid_339/Sigmoid"], "attr": {"T": {"type": "DT_FLOAT"}}}, {"name": "model_83/tf.math.add_462/Add", "op": "AddV2", "input": ["model_83/tf.strided_slice_103/StridedSlice", "model_83/tf.math.multiply_1490/Mul"], "attr": {"T": {"type": "DT_FLOAT"}}}, {"name": "model_83/tf.math.add_463/Add", "op": "_FusedConv2D", "input": ["model_83/tf.math.add_462/Add", "model_83/tf.nn.convolution_370/convolution/filter", "model_83/tf.math.add_463/Add/y"], "device": "/device:CPU:0", "attr": {"leakyrelu_alpha": {"f": 0.2}, "use_cudnn_on_gpu": {"b": true}, "explicit_paddings": {"list": {}}, "num_args": {"i": "1"}, "data_format": {"s": "TkhXQw=="}, "padding": {"s": "U0FNRQ=="}, "num_host_args": {"i": "0"}, "epsilon": {"f": 0.0}, "filter_format": {"s": "SFdJTw=="}, "dilations": {"list": {"i": ["1", "1", "1", "1"]}}, "TArgs": {"list": {"type": ["DT_FLOAT"]}}, "T": {"type": "DT_FLOAT"}, "fused_ops": {"list": {"s": ["Qmlhc0FkZA=="]}}, "strides": {"list": {"i": ["1", "1", "1", "1"]}}}}, {"name": "model_83/tf.math.sigmoid_340/Sigmoid", "op": "Sigmoid", "input": ["model_83/tf.math.add_463/Add"], "attr": {"T": {"type": "DT_FLOAT"}}}, {"name": "model_83/tf.math.multiply_1496/Mul", "op": "Mul", "input": ["model_83/tf.math.add_463/Add", "model_83/tf.math.sigmoid_340/Sigmoid"], "attr": {"T": {"type": "DT_FLOAT"}}}, {"name": "model_83/tf.math.add_464/Add", "op": "_FusedConv2D", "input": ["model_83/tf.math.multiply_1496/Mul", "model_83/tf.nn.convolution_371/convolution/filter", "model_83/tf.math.add_464/Add/y"], "device": "/device:CPU:0", "attr": {"num_args": {"i": "1"}, "leakyrelu_alpha": {"f": 0.2}, "dilations": {"list": {"i": ["1", "1", "1", "1"]}}, "fused_ops": {"list": {"s": ["Qmlhc0FkZA=="]}}, "use_cudnn_on_gpu": {"b": true}, "padding": {"s": "U0FNRQ=="}, "data_format": {"s": "TkhXQw=="}, "explicit_paddings": {"list": {}}, "TArgs": {"list": {"type": ["DT_FLOAT"]}}, "strides": {"list": {"i": ["1", "1", "1", "1"]}}, "T": {"type": "DT_FLOAT"}, "epsilon": {"f": 0.0}, "filter_format": {"s": "SFdJTw=="}, "num_host_args": {"i": "0"}}}, {"name": "model_83/tf.math.sigmoid_341/Sigmoid", "op": "Sigmoid", "input": ["model_83/tf.math.add_464/Add"], "attr": {"T": {"type": "DT_FLOAT"}}}, {"name": "model_83/tf.math.multiply_1500/Mul", "op": "Mul", "input": ["model_83/tf.math.add_464/Add", "model_83/tf.math.sigmoid_341/Sigmoid"], "attr": {"T": {"type": "DT_FLOAT"}}}, {"name": "model_83/tf.math.add_466/Add", "op": "AddV2", "input": ["model_83/tf.math.add_462/Add", "model_83/tf.math.multiply_1500/Mul"], "attr": {"T": {"type": "DT_FLOAT"}}}, {"name": "model_83/tf.concat_111/concat", "op": "ConcatV2", "input": ["model_83/tf.strided_slice_102/StridedSlice", "model_83/tf.strided_slice_103/StridedSlice", "model_83/tf.math.add_462/Add", "model_83/tf.math.add_466/Add", "model_83/tf.concat_111/concat/axis"], "attr": {"N": {"i": "4"}, "Tidx": {"type": "DT_INT32"}, "T": {"type": "DT_FLOAT"}}}, {"name": "model_83/tf.math.add_467/Add", "op": "_FusedConv2D", "input": ["model_83/tf.concat_111/concat", "model_83/tf.nn.convolution_372/convolution/filter", "model_83/tf.math.add_467/Add/y"], "device": "/device:CPU:0", "attr": {"explicit_paddings": {"list": {}}, "strides": {"list": {"i": ["1", "1", "1", "1"]}}, "leakyrelu_alpha": {"f": 0.2}, "use_cudnn_on_gpu": {"b": true}, "fused_ops": {"list": {"s": ["Qmlhc0FkZA=="]}}, "padding": {"s": "U0FNRQ=="}, "T": {"type": "DT_FLOAT"}, "data_format": {"s": "TkhXQw=="}, "epsilon": {"f": 0.0}, "dilations": {"list": {"i": ["1", "1", "1", "1"]}}, "num_host_args": {"i": "0"}, "num_args": {"i": "1"}, "TArgs": {"list": {"type": ["DT_FLOAT"]}}, "filter_format": {"s": "SFdJTw=="}}}, {"name": "model_83/tf.math.sigmoid_342/Sigmoid", "op": "Sigmoid", "input": ["model_83/tf.math.add_467/Add"], "attr": {"T": {"type": "DT_FLOAT"}}}, {"name": "model_83/tf.math.multiply_1506/Mul", "op": "Mul", "input": ["model_83/tf.math.add_467/Add", "model_83/tf.math.sigmoid_342/Sigmoid"], "attr": {"T": {"type": "DT_FLOAT"}}}, {"name": "model_83/tf.compat.v1.pad_38/Pad", "op": "Pad", "input": ["model_83/tf.math.multiply_1506/Mul", "model_83/tf.compat.v1.pad_38/Pad/paddings"], "attr": {"T": {"type": "DT_FLOAT"}, "Tpaddings": {"type": "DT_INT32"}}}, {"name": "model_83/tf.math.add_468/Add", "op": "_FusedConv2D", "input": ["model_83/tf.compat.v1.pad_38/Pad", "model_83/tf.nn.convolution_373/convolution/filter", "model_83/tf.math.add_468/Add/y"], "device": "/device:CPU:0", "attr": {"strides": {"list": {"i": ["1", "2", "2", "1"]}}, "filter_format": {"s": "SFdJTw=="}, "num_host_args": {"i": "0"}, "epsilon": {"f": 0.0}, "explicit_paddings": {"list": {}}, "fused_ops": {"list": {"s": ["Qmlhc0FkZA=="]}}, "use_cudnn_on_gpu": {"b": true}, "T": {"type": "DT_FLOAT"}, "num_args": {"i": "1"}, "data_format": {"s": "TkhXQw=="}, "padding": {"s": "VkFMSUQ="}, "leakyrelu_alpha": {"f": 0.2}, "TArgs": {"list": {"type": ["DT_FLOAT"]}}, "dilations": {"list": {"i": ["1", "1", "1", "1"]}}}}, {"name": "model_83/tf.math.sigmoid_343/Sigmoid", "op": "Sigmoid", "input": ["model_83/tf.math.add_468/Add"], "attr": {"T": {"type": "DT_FLOAT"}}}, {"name": "model_83/tf.math.multiply_1510/Mul", "op": "Mul", "input": ["model_83/tf.math.add_468/Add", "model_83/tf.math.sigmoid_343/Sigmoid"], "attr": {"T": {"type": "DT_FLOAT"}}}, {"name": "model_83/tf.math.add_469/Add", "op": "_FusedConv2D", "input": ["model_83/tf.math.multiply_1510/Mul", "model_83/tf.nn.convolution_374/convolution/filter", "model_83/tf.math.add_469/Add/y"], "device": "/device:CPU:0", "attr": {"explicit_paddings": {"list": {}}, "T": {"type": "DT_FLOAT"}, "data_format": {"s": "TkhXQw=="}, "filter_format": {"s": "SFdJTw=="}, "num_host_args": {"i": "0"}, "TArgs": {"list": {"type": ["DT_FLOAT"]}}, "strides": {"list": {"i": ["1", "1", "1", "1"]}}, "dilations": {"list": {"i": ["1", "1", "1", "1"]}}, "use_cudnn_on_gpu": {"b": true}, "epsilon": {"f": 0.0}, "fused_ops": {"list": {"s": ["Qmlhc0FkZA=="]}}, "leakyrelu_alpha": {"f": 0.2}, "padding": {"s": "U0FNRQ=="}, "num_args": {"i": "1"}}}, {"name": "model_83/tf.math.sigmoid_344/Sigmoid", "op": "Sigmoid", "input": ["model_83/tf.math.add_469/Add"], "attr": {"T": {"type": "DT_FLOAT"}}}, {"name": "model_83/tf.math.multiply_1514/Mul", "op": "Mul", "input": ["model_83/tf.math.add_469/Add", "model_83/tf.math.sigmoid_344/Sigmoid"], "attr": {"T": {"type": "DT_FLOAT"}}}, {"name": "model_83/tf.strided_slice_104/StridedSlice", "op": "StridedSlice", "input": ["model_83/tf.math.multiply_1514/Mul", "model_83/tf.strided_slice_104/ones_like/tensor", "model_83/tf.strided_slice_104/StridedSlice/end", "model_83/tf.strided_slice_104/ones_like"], "attr": {"shrink_axis_mask": {"i": "0"}, "T": {"type": "DT_FLOAT"}, "ellipsis_mask": {"i": "0"}, "new_axis_mask": {"i": "0"}, "Index": {"type": "DT_INT64"}, "end_mask": {"i": "7"}, "begin_mask": {"i": "15"}}}, {"name": "model_83/tf.strided_slice_105/StridedSlice", "op": "StridedSlice", "input": ["model_83/tf.math.multiply_1514/Mul", "model_83/tf.strided_slice_105/ones_like/tensor", "model_83/tf.strided_slice_105/StridedSlice/end", "model_83/tf.strided_slice_105/ones_like"], "attr": {"begin_mask": {"i": "7"}, "end_mask": {"i": "7"}, "shrink_axis_mask": {"i": "0"}, "ellipsis_mask": {"i": "0"}, "Index": {"type": "DT_INT64"}, "new_axis_mask": {"i": "0"}, "T": {"type": "DT_FLOAT"}}}, {"name": "model_83/tf.math.add_470/Add", "op": "_FusedConv2D", "input": ["model_83/tf.strided_slice_105/StridedSlice", "model_83/tf.nn.convolution_375/convolution/filter", "model_83/tf.math.add_470/Add/y"], "device": "/device:CPU:0", "attr": {"dilations": {"list": {"i": ["1", "1", "1", "1"]}}, "num_host_args": {"i": "0"}, "num_args": {"i": "1"}, "filter_format": {"s": "SFdJTw=="}, "T": {"type": "DT_FLOAT"}, "explicit_paddings": {"list": {}}, "leakyrelu_alpha": {"f": 0.2}, "TArgs": {"list": {"type": ["DT_FLOAT"]}}, "epsilon": {"f": 0.0}, "padding": {"s": "U0FNRQ=="}, "data_format": {"s": "TkhXQw=="}, "use_cudnn_on_gpu": {"b": true}, "fused_ops": {"list": {"s": ["Qmlhc0FkZA=="]}}, "strides": {"list": {"i": ["1", "1", "1", "1"]}}}}, {"name": "model_83/tf.math.sigmoid_345/Sigmoid", "op": "Sigmoid", "input": ["model_83/tf.math.add_470/Add"], "attr": {"T": {"type": "DT_FLOAT"}}}, {"name": "model_83/tf.math.multiply_1518/Mul", "op": "Mul", "input": ["model_83/tf.math.add_470/Add", "model_83/tf.math.sigmoid_345/Sigmoid"], "attr": {"T": {"type": "DT_FLOAT"}}}, {"name": "model_83/tf.math.add_471/Add", "op": "_FusedConv2D", "input": ["model_83/tf.math.multiply_1518/Mul", "model_83/tf.nn.convolution_376/convolution/filter", "model_83/tf.math.add_471/Add/y"], "device": "/device:CPU:0", "attr": {"num_args": {"i": "1"}, "explicit_paddings": {"list": {}}, "strides": {"list": {"i": ["1", "1", "1", "1"]}}, "filter_format": {"s": "SFdJTw=="}, "dilations": {"list": {"i": ["1", "1", "1", "1"]}}, "padding": {"s": "U0FNRQ=="}, "num_host_args": {"i": "0"}, "T": {"type": "DT_FLOAT"}, "TArgs": {"list": {"type": ["DT_FLOAT"]}}, "use_cudnn_on_gpu": {"b": true}, "epsilon": {"f": 0.0}, "leakyrelu_alpha": {"f": 0.2}, "fused_ops": {"list": {"s": ["Qmlhc0FkZA=="]}}, "data_format": {"s": "TkhXQw=="}}}, {"name": "model_83/tf.math.sigmoid_346/Sigmoid", "op": "Sigmoid", "input": ["model_83/tf.math.add_471/Add"], "attr": {"T": {"type": "DT_FLOAT"}}}, {"name": "model_83/tf.math.multiply_1522/Mul", "op": "Mul", "input": ["model_83/tf.math.add_471/Add", "model_83/tf.math.sigmoid_346/Sigmoid"], "attr": {"T": {"type": "DT_FLOAT"}}}, {"name": "model_83/tf.math.add_473/Add", "op": "AddV2", "input": ["model_83/tf.strided_slice_105/StridedSlice", "model_83/tf.math.multiply_1522/Mul"], "attr": {"T": {"type": "DT_FLOAT"}}}, {"name": "model_83/tf.math.add_474/Add", "op": "_FusedConv2D", "input": ["model_83/tf.math.add_473/Add", "model_83/tf.nn.convolution_377/convolution/filter", "model_83/tf.math.add_474/Add/y"], "device": "/device:CPU:0", "attr": {"strides": {"list": {"i": ["1", "1", "1", "1"]}}, "leakyrelu_alpha": {"f": 0.2}, "num_args": {"i": "1"}, "dilations": {"list": {"i": ["1", "1", "1", "1"]}}, "TArgs": {"list": {"type": ["DT_FLOAT"]}}, "padding": {"s": "U0FNRQ=="}, "fused_ops": {"list": {"s": ["Qmlhc0FkZA=="]}}, "num_host_args": {"i": "0"}, "epsilon": {"f": 0.0}, "explicit_paddings": {"list": {}}, "filter_format": {"s": "SFdJTw=="}, "T": {"type": "DT_FLOAT"}, "data_format": {"s": "TkhXQw=="}, "use_cudnn_on_gpu": {"b": true}}}, {"name": "model_83/tf.math.sigmoid_347/Sigmoid", "op": "Sigmoid", "input": ["model_83/tf.math.add_474/Add"], "attr": {"T": {"type": "DT_FLOAT"}}}, {"name": "model_83/tf.math.multiply_1528/Mul", "op": "Mul", "input": ["model_83/tf.math.add_474/Add", "model_83/tf.math.sigmoid_347/Sigmoid"], "attr": {"T": {"type": "DT_FLOAT"}}}, {"name": "model_83/tf.math.add_475/Add", "op": "_FusedConv2D", "input": ["model_83/tf.math.multiply_1528/Mul", "model_83/tf.nn.convolution_378/convolution/filter", "model_83/tf.math.add_475/Add/y"], "device": "/device:CPU:0", "attr": {"filter_format": {"s": "SFdJTw=="}, "use_cudnn_on_gpu": {"b": true}, "explicit_paddings": {"list": {}}, "num_args": {"i": "1"}, "dilations": {"list": {"i": ["1", "1", "1", "1"]}}, "T": {"type": "DT_FLOAT"}, "num_host_args": {"i": "0"}, "epsilon": {"f": 0.0}, "strides": {"list": {"i": ["1", "1", "1", "1"]}}, "fused_ops": {"list": {"s": ["Qmlhc0FkZA=="]}}, "TArgs": {"list": {"type": ["DT_FLOAT"]}}, "leakyrelu_alpha": {"f": 0.2}, "padding": {"s": "U0FNRQ=="}, "data_format": {"s": "TkhXQw=="}}}, {"name": "model_83/tf.math.sigmoid_348/Sigmoid", "op": "Sigmoid", "input": ["model_83/tf.math.add_475/Add"], "attr": {"T": {"type": "DT_FLOAT"}}}, {"name": "model_83/tf.math.multiply_1532/Mul", "op": "Mul", "input": ["model_83/tf.math.add_475/Add", "model_83/tf.math.sigmoid_348/Sigmoid"], "attr": {"T": {"type": "DT_FLOAT"}}}, {"name": "model_83/tf.math.add_477/Add", "op": "AddV2", "input": ["model_83/tf.math.add_473/Add", "model_83/tf.math.multiply_1532/Mul"], "attr": {"T": {"type": "DT_FLOAT"}}}, {"name": "model_83/tf.concat_112/concat", "op": "ConcatV2", "input": ["model_83/tf.strided_slice_104/StridedSlice", "model_83/tf.strided_slice_105/StridedSlice", "model_83/tf.math.add_473/Add", "model_83/tf.math.add_477/Add", "model_83/tf.concat_112/concat/axis"], "attr": {"Tidx": {"type": "DT_INT32"}, "T": {"type": "DT_FLOAT"}, "N": {"i": "4"}}}, {"name": "model_83/tf.math.add_478/Add", "op": "_FusedConv2D", "input": ["model_83/tf.concat_112/concat", "model_83/tf.nn.convolution_379/convolution/filter", "model_83/tf.math.add_478/Add/y"], "device": "/device:CPU:0", "attr": {"strides": {"list": {"i": ["1", "1", "1", "1"]}}, "leakyrelu_alpha": {"f": 0.2}, "num_host_args": {"i": "0"}, "epsilon": {"f": 0.0}, "use_cudnn_on_gpu": {"b": true}, "T": {"type": "DT_FLOAT"}, "data_format": {"s": "TkhXQw=="}, "dilations": {"list": {"i": ["1", "1", "1", "1"]}}, "filter_format": {"s": "SFdJTw=="}, "explicit_paddings": {"list": {}}, "padding": {"s": "U0FNRQ=="}, "num_args": {"i": "1"}, "TArgs": {"list": {"type": ["DT_FLOAT"]}}, "fused_ops": {"list": {"s": ["Qmlhc0FkZA=="]}}}}, {"name": "model_83/tf.math.sigmoid_349/Sigmoid", "op": "Sigmoid", "input": ["model_83/tf.math.add_478/Add"], "attr": {"T": {"type": "DT_FLOAT"}}}, {"name": "model_83/tf.math.multiply_1538/Mul", "op": "Mul", "input": ["model_83/tf.math.add_478/Add", "model_83/tf.math.sigmoid_349/Sigmoid"], "attr": {"T": {"type": "DT_FLOAT"}}}, {"name": "model_83/tf.compat.v1.pad_39/Pad", "op": "Pad", "input": ["model_83/tf.math.multiply_1538/Mul", "model_83/tf.compat.v1.pad_39/Pad/paddings"], "attr": {"T": {"type": "DT_FLOAT"}, "Tpaddings": {"type": "DT_INT32"}}}, {"name": "model_83/tf.math.add_479/Add", "op": "_FusedConv2D", "input": ["model_83/tf.compat.v1.pad_39/Pad", "model_83/tf.nn.convolution_380/convolution/filter", "model_83/tf.math.add_479/Add/y"], "device": "/device:CPU:0", "attr": {"data_format": {"s": "TkhXQw=="}, "num_args": {"i": "1"}, "num_host_args": {"i": "0"}, "use_cudnn_on_gpu": {"b": true}, "leakyrelu_alpha": {"f": 0.2}, "epsilon": {"f": 0.0}, "explicit_paddings": {"list": {}}, "strides": {"list": {"i": ["1", "2", "2", "1"]}}, "TArgs": {"list": {"type": ["DT_FLOAT"]}}, "padding": {"s": "VkFMSUQ="}, "fused_ops": {"list": {"s": ["Qmlhc0FkZA=="]}}, "filter_format": {"s": "SFdJTw=="}, "T": {"type": "DT_FLOAT"}, "dilations": {"list": {"i": ["1", "1", "1", "1"]}}}}, {"name": "model_83/tf.math.sigmoid_350/Sigmoid", "op": "Sigmoid", "input": ["model_83/tf.math.add_479/Add"], "attr": {"T": {"type": "DT_FLOAT"}}}, {"name": "model_83/tf.math.multiply_1542/Mul", "op": "Mul", "input": ["model_83/tf.math.add_479/Add", "model_83/tf.math.sigmoid_350/Sigmoid"], "attr": {"T": {"type": "DT_FLOAT"}}}, {"name": "model_83/tf.math.add_480/Add", "op": "_FusedConv2D", "input": ["model_83/tf.math.multiply_1542/Mul", "model_83/tf.nn.convolution_381/convolution/filter", "model_83/tf.math.add_480/Add/y"], "device": "/device:CPU:0", "attr": {"dilations": {"list": {"i": ["1", "1", "1", "1"]}}, "filter_format": {"s": "SFdJTw=="}, "fused_ops": {"list": {"s": ["Qmlhc0FkZA=="]}}, "explicit_paddings": {"list": {}}, "use_cudnn_on_gpu": {"b": true}, "data_format": {"s": "TkhXQw=="}, "num_host_args": {"i": "0"}, "T": {"type": "DT_FLOAT"}, "padding": {"s": "U0FNRQ=="}, "num_args": {"i": "1"}, "TArgs": {"list": {"type": ["DT_FLOAT"]}}, "leakyrelu_alpha": {"f": 0.2}, "strides": {"list": {"i": ["1", "1", "1", "1"]}}, "epsilon": {"f": 0.0}}}, {"name": "model_83/tf.math.sigmoid_351/Sigmoid", "op": "Sigmoid", "input": ["model_83/tf.math.add_480/Add"], "attr": {"T": {"type": "DT_FLOAT"}}}, {"name": "model_83/tf.math.multiply_1546/Mul", "op": "Mul", "input": ["model_83/tf.math.add_480/Add", "model_83/tf.math.sigmoid_351/Sigmoid"], "attr": {"T": {"type": "DT_FLOAT"}}}, {"name": "model_83/tf.strided_slice_106/StridedSlice", "op": "StridedSlice", "input": ["model_83/tf.math.multiply_1546/Mul", "model_83/tf.strided_slice_106/ones_like/tensor", "model_83/tf.strided_slice_106/StridedSlice/end", "model_83/tf.strided_slice_106/ones_like"], "attr": {"Index": {"type": "DT_INT64"}, "shrink_axis_mask": {"i": "0"}, "begin_mask": {"i": "15"}, "ellipsis_mask": {"i": "0"}, "T": {"type": "DT_FLOAT"}, "end_mask": {"i": "7"}, "new_axis_mask": {"i": "0"}}}, {"name": "model_83/tf.strided_slice_107/StridedSlice", "op": "StridedSlice", "input": ["model_83/tf.math.multiply_1546/Mul", "model_83/tf.strided_slice_107/ones_like/tensor", "model_83/tf.strided_slice_107/StridedSlice/end", "model_83/tf.strided_slice_107/ones_like"], "attr": {"begin_mask": {"i": "7"}, "Index": {"type": "DT_INT64"}, "new_axis_mask": {"i": "0"}, "ellipsis_mask": {"i": "0"}, "end_mask": {"i": "7"}, "T": {"type": "DT_FLOAT"}, "shrink_axis_mask": {"i": "0"}}}, {"name": "model_83/tf.math.add_481/Add", "op": "_FusedConv2D", "input": ["model_83/tf.strided_slice_107/StridedSlice", "model_83/tf.nn.convolution_382/convolution/filter", "model_83/tf.math.add_481/Add/y"], "device": "/device:CPU:0", "attr": {"data_format": {"s": "TkhXQw=="}, "TArgs": {"list": {"type": ["DT_FLOAT"]}}, "num_host_args": {"i": "0"}, "explicit_paddings": {"list": {}}, "use_cudnn_on_gpu": {"b": true}, "fused_ops": {"list": {"s": ["Qmlhc0FkZA=="]}}, "num_args": {"i": "1"}, "dilations": {"list": {"i": ["1", "1", "1", "1"]}}, "epsilon": {"f": 0.0}, "padding": {"s": "U0FNRQ=="}, "leakyrelu_alpha": {"f": 0.2}, "strides": {"list": {"i": ["1", "1", "1", "1"]}}, "filter_format": {"s": "SFdJTw=="}, "T": {"type": "DT_FLOAT"}}}, {"name": "model_83/tf.math.sigmoid_352/Sigmoid", "op": "Sigmoid", "input": ["model_83/tf.math.add_481/Add"], "attr": {"T": {"type": "DT_FLOAT"}}}, {"name": "model_83/tf.math.multiply_1550/Mul", "op": "Mul", "input": ["model_83/tf.math.add_481/Add", "model_83/tf.math.sigmoid_352/Sigmoid"], "attr": {"T": {"type": "DT_FLOAT"}}}, {"name": "model_83/tf.math.add_482/Add", "op": "_FusedConv2D", "input": ["model_83/tf.math.multiply_1550/Mul", "model_83/tf.nn.convolution_383/convolution/filter", "model_83/tf.math.add_482/Add/y"], "device": "/device:CPU:0", "attr": {"fused_ops": {"list": {"s": ["Qmlhc0FkZA=="]}}, "TArgs": {"list": {"type": ["DT_FLOAT"]}}, "num_args": {"i": "1"}, "dilations": {"list": {"i": ["1", "1", "1", "1"]}}, "explicit_paddings": {"list": {}}, "padding": {"s": "U0FNRQ=="}, "epsilon": {"f": 0.0}, "use_cudnn_on_gpu": {"b": true}, "filter_format": {"s": "SFdJTw=="}, "num_host_args": {"i": "0"}, "leakyrelu_alpha": {"f": 0.2}, "strides": {"list": {"i": ["1", "1", "1", "1"]}}, "T": {"type": "DT_FLOAT"}, "data_format": {"s": "TkhXQw=="}}}, {"name": "model_83/tf.math.sigmoid_353/Sigmoid", "op": "Sigmoid", "input": ["model_83/tf.math.add_482/Add"], "attr": {"T": {"type": "DT_FLOAT"}}}, {"name": "model_83/tf.math.multiply_1554/Mul", "op": "Mul", "input": ["model_83/tf.math.add_482/Add", "model_83/tf.math.sigmoid_353/Sigmoid"], "attr": {"T": {"type": "DT_FLOAT"}}}, {"name": "model_83/tf.math.add_484/Add", "op": "AddV2", "input": ["model_83/tf.strided_slice_107/StridedSlice", "model_83/tf.math.multiply_1554/Mul"], "attr": {"T": {"type": "DT_FLOAT"}}}, {"name": "model_83/tf.concat_113/concat", "op": "ConcatV2", "input": ["model_83/tf.strided_slice_106/StridedSlice", "model_83/tf.strided_slice_107/StridedSlice", "model_83/tf.math.add_484/Add", "model_83/tf.concat_113/concat/axis"], "attr": {"Tidx": {"type": "DT_INT32"}, "N": {"i": "3"}, "T": {"type": "DT_FLOAT"}}}, {"name": "model_83/tf.math.add_485/Add", "op": "_FusedConv2D", "input": ["model_83/tf.concat_113/concat", "model_83/tf.nn.convolution_384/convolution/filter", "model_83/tf.math.add_485/Add/y"], "device": "/device:CPU:0", "attr": {"num_args": {"i": "1"}, "leakyrelu_alpha": {"f": 0.2}, "use_cudnn_on_gpu": {"b": true}, "fused_ops": {"list": {"s": ["Qmlhc0FkZA=="]}}, "explicit_paddings": {"list": {}}, "epsilon": {"f": 0.0}, "data_format": {"s": "TkhXQw=="}, "TArgs": {"list": {"type": ["DT_FLOAT"]}}, "padding": {"s": "U0FNRQ=="}, "strides": {"list": {"i": ["1", "1", "1", "1"]}}, "filter_format": {"s": "SFdJTw=="}, "num_host_args": {"i": "0"}, "T": {"type": "DT_FLOAT"}, "dilations": {"list": {"i": ["1", "1", "1", "1"]}}}}, {"name": "model_83/tf.math.sigmoid_354/Sigmoid", "op": "Sigmoid", "input": ["model_83/tf.math.add_485/Add"], "attr": {"T": {"type": "DT_FLOAT"}}}, {"name": "model_83/tf.math.multiply_1560/Mul", "op": "Mul", "input": ["model_83/tf.math.add_485/Add", "model_83/tf.math.sigmoid_354/Sigmoid"], "attr": {"T": {"type": "DT_FLOAT"}}}, {"name": "model_83/tf.math.add_486/Add", "op": "_FusedConv2D", "input": ["model_83/tf.math.multiply_1560/Mul", "model_83/tf.nn.convolution_385/convolution/filter", "model_83/tf.math.add_486/Add/y"], "device": "/device:CPU:0", "attr": {"epsilon": {"f": 0.0}, "fused_ops": {"list": {"s": ["Qmlhc0FkZA=="]}}, "data_format": {"s": "TkhXQw=="}, "num_args": {"i": "1"}, "padding": {"s": "U0FNRQ=="}, "explicit_paddings": {"list": {}}, "num_host_args": {"i": "0"}, "leakyrelu_alpha": {"f": 0.2}, "dilations": {"list": {"i": ["1", "1", "1", "1"]}}, "filter_format": {"s": "SFdJTw=="}, "strides": {"list": {"i": ["1", "1", "1", "1"]}}, "TArgs": {"list": {"type": ["DT_FLOAT"]}}, "T": {"type": "DT_FLOAT"}, "use_cudnn_on_gpu": {"b": true}}}, {"name": "model_83/tf.math.sigmoid_355/Sigmoid", "op": "Sigmoid", "input": ["model_83/tf.math.add_486/Add"], "attr": {"T": {"type": "DT_FLOAT"}}}, {"name": "model_83/tf.math.multiply_1564/Mul", "op": "Mul", "input": ["model_83/tf.math.add_486/Add", "model_83/tf.math.sigmoid_355/Sigmoid"], "attr": {"T": {"type": "DT_FLOAT"}}}, {"name": "model_83/tf.compat.v1.nn.pool_15/max_pool", "op": "MaxPool", "input": ["model_83/tf.math.multiply_1564/Mul"], "attr": {"ksize": {"list": {"i": ["1", "5", "5", "1"]}}, "strides": {"list": {"i": ["1", "1", "1", "1"]}}, "explicit_paddings": {"list": {}}, "padding": {"s": "U0FNRQ=="}, "T": {"type": "DT_FLOAT"}, "data_format": {"s": "TkhXQw=="}}}, {"name": "model_83/tf.compat.v1.nn.pool_16/max_pool", "op": "MaxPool", "input": ["model_83/tf.compat.v1.nn.pool_15/max_pool"], "attr": {"ksize": {"list": {"i": ["1", "5", "5", "1"]}}, "strides": {"list": {"i": ["1", "1", "1", "1"]}}, "explicit_paddings": {"list": {}}, "padding": {"s": "U0FNRQ=="}, "data_format": {"s": "TkhXQw=="}, "T": {"type": "DT_FLOAT"}}}, {"name": "model_83/tf.compat.v1.nn.pool_17/max_pool", "op": "MaxPool", "input": ["model_83/tf.compat.v1.nn.pool_16/max_pool"], "attr": {"padding": {"s": "U0FNRQ=="}, "data_format": {"s": "TkhXQw=="}, "explicit_paddings": {"list": {}}, "T": {"type": "DT_FLOAT"}, "strides": {"list": {"i": ["1", "1", "1", "1"]}}, "ksize": {"list": {"i": ["1", "5", "5", "1"]}}}}, {"name": "model_83/tf.concat_114/concat", "op": "ConcatV2", "input": ["model_83/tf.math.multiply_1564/Mul", "model_83/tf.compat.v1.nn.pool_15/max_pool", "model_83/tf.compat.v1.nn.pool_16/max_pool", "model_83/tf.compat.v1.nn.pool_17/max_pool", "model_83/tf.concat_114/concat/axis"], "attr": {"N": {"i": "4"}, "T": {"type": "DT_FLOAT"}, "Tidx": {"type": "DT_INT32"}}}, {"name": "model_83/tf.math.add_487/Add", "op": "_FusedConv2D", "input": ["model_83/tf.concat_114/concat", "model_83/tf.nn.convolution_386/convolution/filter", "model_83/tf.math.add_487/Add/y"], "device": "/device:CPU:0", "attr": {"explicit_paddings": {"list": {}}, "epsilon": {"f": 0.0}, "padding": {"s": "U0FNRQ=="}, "leakyrelu_alpha": {"f": 0.2}, "fused_ops": {"list": {"s": ["Qmlhc0FkZA=="]}}, "dilations": {"list": {"i": ["1", "1", "1", "1"]}}, "data_format": {"s": "TkhXQw=="}, "num_args": {"i": "1"}, "T": {"type": "DT_FLOAT"}, "filter_format": {"s": "SFdJTw=="}, "TArgs": {"list": {"type": ["DT_FLOAT"]}}, "strides": {"list": {"i": ["1", "1", "1", "1"]}}, "num_host_args": {"i": "0"}, "use_cudnn_on_gpu": {"b": true}}}, {"name": "model_83/tf.math.sigmoid_356/Sigmoid", "op": "Sigmoid", "input": ["model_83/tf.math.add_487/Add"], "attr": {"T": {"type": "DT_FLOAT"}}}, {"name": "model_83/tf.math.multiply_1568/Mul", "op": "Mul", "input": ["model_83/tf.math.add_487/Add", "model_83/tf.math.sigmoid_356/Sigmoid"], "attr": {"T": {"type": "DT_FLOAT"}}}, {"name": "model_83/tf.image.resize_10/resize/ResizeNearestNeighbor", "op": "ResizeNearestNeighbor", "input": ["model_83/tf.math.multiply_1568/Mul", "model_83/tf.image.resize_10/resize/size"], "attr": {"align_corners": {"b": false}, "half_pixel_centers": {"b": true}, "T": {"type": "DT_FLOAT"}}}, {"name": "model_83/tf.concat_115/concat", "op": "ConcatV2", "input": ["model_83/tf.image.resize_10/resize/ResizeNearestNeighbor", "model_83/tf.math.multiply_1538/Mul", "model_83/tf.concat_115/concat/axis"], "attr": {"T": {"type": "DT_FLOAT"}, "N": {"i": "2"}, "Tidx": {"type": "DT_INT32"}}}, {"name": "model_83/tf.math.add_488/Add", "op": "_FusedConv2D", "input": ["model_83/tf.concat_115/concat", "model_83/tf.nn.convolution_387/convolution/filter", "model_83/tf.math.add_488/Add/y"], "device": "/device:CPU:0", "attr": {"explicit_paddings": {"list": {}}, "num_args": {"i": "1"}, "epsilon": {"f": 0.0}, "filter_format": {"s": "SFdJTw=="}, "strides": {"list": {"i": ["1", "1", "1", "1"]}}, "num_host_args": {"i": "0"}, "data_format": {"s": "TkhXQw=="}, "TArgs": {"list": {"type": ["DT_FLOAT"]}}, "dilations": {"list": {"i": ["1", "1", "1", "1"]}}, "T": {"type": "DT_FLOAT"}, "leakyrelu_alpha": {"f": 0.2}, "fused_ops": {"list": {"s": ["Qmlhc0FkZA=="]}}, "padding": {"s": "U0FNRQ=="}, "use_cudnn_on_gpu": {"b": true}}}, {"name": "model_83/tf.math.sigmoid_357/Sigmoid", "op": "Sigmoid", "input": ["model_83/tf.math.add_488/Add"], "attr": {"T": {"type": "DT_FLOAT"}}}, {"name": "model_83/tf.math.multiply_1572/Mul", "op": "Mul", "input": ["model_83/tf.math.add_488/Add", "model_83/tf.math.sigmoid_357/Sigmoid"], "attr": {"T": {"type": "DT_FLOAT"}}}, {"name": "model_83/tf.strided_slice_108/StridedSlice", "op": "StridedSlice", "input": ["model_83/tf.math.multiply_1572/Mul", "model_83/tf.strided_slice_108/ones_like/tensor", "model_83/tf.strided_slice_108/StridedSlice/end", "model_83/tf.strided_slice_108/ones_like"], "attr": {"shrink_axis_mask": {"i": "0"}, "ellipsis_mask": {"i": "0"}, "T": {"type": "DT_FLOAT"}, "new_axis_mask": {"i": "0"}, "Index": {"type": "DT_INT64"}, "end_mask": {"i": "7"}, "begin_mask": {"i": "15"}}}, {"name": "model_83/tf.strided_slice_109/StridedSlice", "op": "StridedSlice", "input": ["model_83/tf.math.multiply_1572/Mul", "model_83/tf.strided_slice_109/ones_like/tensor", "model_83/tf.strided_slice_109/StridedSlice/end", "model_83/tf.strided_slice_109/ones_like"], "attr": {"shrink_axis_mask": {"i": "0"}, "ellipsis_mask": {"i": "0"}, "Index": {"type": "DT_INT64"}, "end_mask": {"i": "7"}, "T": {"type": "DT_FLOAT"}, "new_axis_mask": {"i": "0"}, "begin_mask": {"i": "7"}}}, {"name": "model_83/tf.math.add_489/Add", "op": "_FusedConv2D", "input": ["model_83/tf.strided_slice_109/StridedSlice", "model_83/tf.nn.convolution_388/convolution/filter", "model_83/tf.math.add_489/Add/y"], "device": "/device:CPU:0", "attr": {"filter_format": {"s": "SFdJTw=="}, "num_host_args": {"i": "0"}, "padding": {"s": "U0FNRQ=="}, "strides": {"list": {"i": ["1", "1", "1", "1"]}}, "use_cudnn_on_gpu": {"b": true}, "epsilon": {"f": 0.0}, "leakyrelu_alpha": {"f": 0.2}, "num_args": {"i": "1"}, "dilations": {"list": {"i": ["1", "1", "1", "1"]}}, "fused_ops": {"list": {"s": ["Qmlhc0FkZA=="]}}, "data_format": {"s": "TkhXQw=="}, "TArgs": {"list": {"type": ["DT_FLOAT"]}}, "T": {"type": "DT_FLOAT"}, "explicit_paddings": {"list": {}}}}, {"name": "model_83/tf.math.sigmoid_358/Sigmoid", "op": "Sigmoid", "input": ["model_83/tf.math.add_489/Add"], "attr": {"T": {"type": "DT_FLOAT"}}}, {"name": "model_83/tf.math.multiply_1576/Mul", "op": "Mul", "input": ["model_83/tf.math.add_489/Add", "model_83/tf.math.sigmoid_358/Sigmoid"], "attr": {"T": {"type": "DT_FLOAT"}}}, {"name": "model_83/tf.math.add_490/Add", "op": "_FusedConv2D", "input": ["model_83/tf.math.multiply_1576/Mul", "model_83/tf.nn.convolution_389/convolution/filter", "model_83/tf.math.add_490/Add/y"], "device": "/device:CPU:0", "attr": {"strides": {"list": {"i": ["1", "1", "1", "1"]}}, "filter_format": {"s": "SFdJTw=="}, "padding": {"s": "U0FNRQ=="}, "num_host_args": {"i": "0"}, "leakyrelu_alpha": {"f": 0.2}, "data_format": {"s": "TkhXQw=="}, "dilations": {"list": {"i": ["1", "1", "1", "1"]}}, "use_cudnn_on_gpu": {"b": true}, "epsilon": {"f": 0.0}, "TArgs": {"list": {"type": ["DT_FLOAT"]}}, "fused_ops": {"list": {"s": ["Qmlhc0FkZA=="]}}, "explicit_paddings": {"list": {}}, "num_args": {"i": "1"}, "T": {"type": "DT_FLOAT"}}}, {"name": "model_83/tf.math.sigmoid_359/Sigmoid", "op": "Sigmoid", "input": ["model_83/tf.math.add_490/Add"], "attr": {"T": {"type": "DT_FLOAT"}}}, {"name": "model_83/tf.math.multiply_1580/Mul", "op": "Mul", "input": ["model_83/tf.math.add_490/Add", "model_83/tf.math.sigmoid_359/Sigmoid"], "attr": {"T": {"type": "DT_FLOAT"}}}, {"name": "model_83/tf.concat_116/concat", "op": "ConcatV2", "input": ["model_83/tf.strided_slice_108/StridedSlice", "model_83/tf.strided_slice_109/StridedSlice", "model_83/tf.math.multiply_1580/Mul", "model_83/tf.concat_116/concat/axis"], "attr": {"Tidx": {"type": "DT_INT32"}, "N": {"i": "3"}, "T": {"type": "DT_FLOAT"}}}, {"name": "model_83/tf.math.add_491/Add", "op": "_FusedConv2D", "input": ["model_83/tf.concat_116/concat", "model_83/tf.nn.convolution_390/convolution/filter", "model_83/tf.math.add_491/Add/y"], "device": "/device:CPU:0", "attr": {"epsilon": {"f": 0.0}, "dilations": {"list": {"i": ["1", "1", "1", "1"]}}, "data_format": {"s": "TkhXQw=="}, "num_host_args": {"i": "0"}, "leakyrelu_alpha": {"f": 0.2}, "fused_ops": {"list": {"s": ["Qmlhc0FkZA=="]}}, "use_cudnn_on_gpu": {"b": true}, "padding": {"s": "U0FNRQ=="}, "T": {"type": "DT_FLOAT"}, "TArgs": {"list": {"type": ["DT_FLOAT"]}}, "explicit_paddings": {"list": {}}, "strides": {"list": {"i": ["1", "1", "1", "1"]}}, "filter_format": {"s": "SFdJTw=="}, "num_args": {"i": "1"}}}, {"name": "model_83/tf.math.sigmoid_360/Sigmoid", "op": "Sigmoid", "input": ["model_83/tf.math.add_491/Add"], "attr": {"T": {"type": "DT_FLOAT"}}}, {"name": "model_83/tf.math.multiply_1584/Mul", "op": "Mul", "input": ["model_83/tf.math.add_491/Add", "model_83/tf.math.sigmoid_360/Sigmoid"], "attr": {"T": {"type": "DT_FLOAT"}}}, {"name": "model_83/tf.image.resize_11/resize/ResizeNearestNeighbor", "op": "ResizeNearestNeighbor", "input": ["model_83/tf.math.multiply_1584/Mul", "model_83/tf.image.resize_11/resize/size"], "attr": {"half_pixel_centers": {"b": true}, "align_corners": {"b": false}, "T": {"type": "DT_FLOAT"}}}, {"name": "model_83/tf.concat_117/concat", "op": "ConcatV2", "input": ["model_83/tf.image.resize_11/resize/ResizeNearestNeighbor", "model_83/tf.math.multiply_1506/Mul", "model_83/tf.concat_117/concat/axis"], "attr": {"Tidx": {"type": "DT_INT32"}, "N": {"i": "2"}, "T": {"type": "DT_FLOAT"}}}, {"name": "model_83/tf.math.add_492/Add", "op": "_FusedConv2D", "input": ["model_83/tf.concat_117/concat", "model_83/tf.nn.convolution_391/convolution/filter", "model_83/tf.math.add_492/Add/y"], "device": "/device:CPU:0", "attr": {"T": {"type": "DT_FLOAT"}, "leakyrelu_alpha": {"f": 0.2}, "explicit_paddings": {"list": {}}, "dilations": {"list": {"i": ["1", "1", "1", "1"]}}, "data_format": {"s": "TkhXQw=="}, "padding": {"s": "U0FNRQ=="}, "fused_ops": {"list": {"s": ["Qmlhc0FkZA=="]}}, "TArgs": {"list": {"type": ["DT_FLOAT"]}}, "epsilon": {"f": 0.0}, "use_cudnn_on_gpu": {"b": true}, "num_args": {"i": "1"}, "filter_format": {"s": "SFdJTw=="}, "num_host_args": {"i": "0"}, "strides": {"list": {"i": ["1", "1", "1", "1"]}}}}, {"name": "model_83/tf.math.sigmoid_361/Sigmoid", "op": "Sigmoid", "input": ["model_83/tf.math.add_492/Add"], "attr": {"T": {"type": "DT_FLOAT"}}}, {"name": "model_83/tf.math.multiply_1588/Mul", "op": "Mul", "input": ["model_83/tf.math.add_492/Add", "model_83/tf.math.sigmoid_361/Sigmoid"], "attr": {"T": {"type": "DT_FLOAT"}}}, {"name": "model_83/tf.strided_slice_110/StridedSlice", "op": "StridedSlice", "input": ["model_83/tf.math.multiply_1588/Mul", "model_83/tf.strided_slice_110/ones_like/tensor", "model_83/tf.strided_slice_110/StridedSlice/end", "model_83/tf.strided_slice_110/ones_like"], "attr": {"Index": {"type": "DT_INT64"}, "ellipsis_mask": {"i": "0"}, "end_mask": {"i": "7"}, "T": {"type": "DT_FLOAT"}, "new_axis_mask": {"i": "0"}, "shrink_axis_mask": {"i": "0"}, "begin_mask": {"i": "15"}}}, {"name": "model_83/tf.strided_slice_111/StridedSlice", "op": "StridedSlice", "input": ["model_83/tf.math.multiply_1588/Mul", "model_83/tf.strided_slice_111/ones_like/tensor", "model_83/tf.strided_slice_111/StridedSlice/end", "model_83/tf.strided_slice_111/ones_like"], "attr": {"T": {"type": "DT_FLOAT"}, "Index": {"type": "DT_INT64"}, "new_axis_mask": {"i": "0"}, "shrink_axis_mask": {"i": "0"}, "ellipsis_mask": {"i": "0"}, "end_mask": {"i": "7"}, "begin_mask": {"i": "7"}}}, {"name": "model_83/tf.math.add_493/Add", "op": "_FusedConv2D", "input": ["model_83/tf.strided_slice_111/StridedSlice", "model_83/tf.nn.convolution_392/convolution/filter", "model_83/tf.math.add_493/Add/y"], "device": "/device:CPU:0", "attr": {"strides": {"list": {"i": ["1", "1", "1", "1"]}}, "explicit_paddings": {"list": {}}, "leakyrelu_alpha": {"f": 0.2}, "fused_ops": {"list": {"s": ["Qmlhc0FkZA=="]}}, "T": {"type": "DT_FLOAT"}, "TArgs": {"list": {"type": ["DT_FLOAT"]}}, "data_format": {"s": "TkhXQw=="}, "padding": {"s": "U0FNRQ=="}, "filter_format": {"s": "SFdJTw=="}, "num_host_args": {"i": "0"}, "dilations": {"list": {"i": ["1", "1", "1", "1"]}}, "num_args": {"i": "1"}, "use_cudnn_on_gpu": {"b": true}, "epsilon": {"f": 0.0}}}, {"name": "model_83/tf.math.sigmoid_362/Sigmoid", "op": "Sigmoid", "input": ["model_83/tf.math.add_493/Add"], "attr": {"T": {"type": "DT_FLOAT"}}}, {"name": "model_83/tf.math.multiply_1592/Mul", "op": "Mul", "input": ["model_83/tf.math.add_493/Add", "model_83/tf.math.sigmoid_362/Sigmoid"], "attr": {"T": {"type": "DT_FLOAT"}}}, {"name": "model_83/tf.math.add_494/Add", "op": "_FusedConv2D", "input": ["model_83/tf.math.multiply_1592/Mul", "model_83/tf.nn.convolution_393/convolution/filter", "model_83/tf.math.add_494/Add/y"], "device": "/device:CPU:0", "attr": {"TArgs": {"list": {"type": ["DT_FLOAT"]}}, "explicit_paddings": {"list": {}}, "T": {"type": "DT_FLOAT"}, "filter_format": {"s": "SFdJTw=="}, "dilations": {"list": {"i": ["1", "1", "1", "1"]}}, "num_host_args": {"i": "0"}, "data_format": {"s": "TkhXQw=="}, "use_cudnn_on_gpu": {"b": true}, "epsilon": {"f": 0.0}, "padding": {"s": "U0FNRQ=="}, "num_args": {"i": "1"}, "strides": {"list": {"i": ["1", "1", "1", "1"]}}, "fused_ops": {"list": {"s": ["Qmlhc0FkZA=="]}}, "leakyrelu_alpha": {"f": 0.2}}}, {"name": "model_83/tf.math.sigmoid_363/Sigmoid", "op": "Sigmoid", "input": ["model_83/tf.math.add_494/Add"], "attr": {"T": {"type": "DT_FLOAT"}}}, {"name": "model_83/tf.math.multiply_1596/Mul", "op": "Mul", "input": ["model_83/tf.math.add_494/Add", "model_83/tf.math.sigmoid_363/Sigmoid"], "attr": {"T": {"type": "DT_FLOAT"}}}, {"name": "model_83/tf.concat_118/concat", "op": "ConcatV2", "input": ["model_83/tf.strided_slice_110/StridedSlice", "model_83/tf.strided_slice_111/StridedSlice", "model_83/tf.math.multiply_1596/Mul", "model_83/tf.concat_118/concat/axis"], "attr": {"N": {"i": "3"}, "Tidx": {"type": "DT_INT32"}, "T": {"type": "DT_FLOAT"}}}, {"name": "model_83/tf.math.add_495/Add", "op": "_FusedConv2D", "input": ["model_83/tf.concat_118/concat", "model_83/tf.nn.convolution_394/convolution/filter", "model_83/tf.math.add_495/Add/y"], "device": "/device:CPU:0", "attr": {"leakyrelu_alpha": {"f": 0.2}, "fused_ops": {"list": {"s": ["Qmlhc0FkZA=="]}}, "data_format": {"s": "TkhXQw=="}, "num_args": {"i": "1"}, "use_cudnn_on_gpu": {"b": true}, "dilations": {"list": {"i": ["1", "1", "1", "1"]}}, "filter_format": {"s": "SFdJTw=="}, "epsilon": {"f": 0.0}, "explicit_paddings": {"list": {}}, "TArgs": {"list": {"type": ["DT_FLOAT"]}}, "strides": {"list": {"i": ["1", "1", "1", "1"]}}, "T": {"type": "DT_FLOAT"}, "num_host_args": {"i": "0"}, "padding": {"s": "U0FNRQ=="}}}, {"name": "model_83/tf.math.sigmoid_364/Sigmoid", "op": "Sigmoid", "input": ["model_83/tf.math.add_495/Add"], "attr": {"T": {"type": "DT_FLOAT"}}}, {"name": "model_83/tf.math.multiply_1600/Mul", "op": "Mul", "input": ["model_83/tf.math.add_495/Add", "model_83/tf.math.sigmoid_364/Sigmoid"], "attr": {"T": {"type": "DT_FLOAT"}}}, {"name": "model_83/tf.math.add_497/Add", "op": "_FusedConv2D", "input": ["model_83/tf.math.multiply_1600/Mul", "model_83/tf.nn.convolution_396/convolution/filter", "model_83/tf.math.add_497/Add/y"], "device": "/device:CPU:0", "attr": {"leakyrelu_alpha": {"f": 0.2}, "strides": {"list": {"i": ["1", "1", "1", "1"]}}, "use_cudnn_on_gpu": {"b": true}, "T": {"type": "DT_FLOAT"}, "epsilon": {"f": 0.0}, "data_format": {"s": "TkhXQw=="}, "num_args": {"i": "1"}, "fused_ops": {"list": {"s": ["Qmlhc0FkZA=="]}}, "num_host_args": {"i": "0"}, "explicit_paddings": {"list": {}}, "filter_format": {"s": "SFdJTw=="}, "TArgs": {"list": {"type": ["DT_FLOAT"]}}, "padding": {"s": "U0FNRQ=="}, "dilations": {"list": {"i": ["1", "1", "1", "1"]}}}}, {"name": "model_83/tf.math.add_498/Add", "op": "_FusedConv2D", "input": ["model_83/tf.math.multiply_1600/Mul", "model_83/tf.nn.convolution_397/convolution/filter", "model_83/tf.math.add_498/Add/y"], "device": "/device:CPU:0", "attr": {"leakyrelu_alpha": {"f": 0.2}, "num_args": {"i": "1"}, "epsilon": {"f": 0.0}, "TArgs": {"list": {"type": ["DT_FLOAT"]}}, "use_cudnn_on_gpu": {"b": true}, "data_format": {"s": "TkhXQw=="}, "num_host_args": {"i": "0"}, "padding": {"s": "U0FNRQ=="}, "T": {"type": "DT_FLOAT"}, "fused_ops": {"list": {"s": ["Qmlhc0FkZA=="]}}, "explicit_paddings": {"list": {}}, "dilations": {"list": {"i": ["1", "1", "1", "1"]}}, "filter_format": {"s": "SFdJTw=="}, "strides": {"list": {"i": ["1", "1", "1", "1"]}}}}, {"name": "model_83/tf.compat.v1.pad_40/Pad", "op": "Pad", "input": ["model_83/tf.math.multiply_1600/Mul", "model_83/tf.compat.v1.pad_40/Pad/paddings"], "attr": {"T": {"type": "DT_FLOAT"}, "Tpaddings": {"type": "DT_INT32"}}}, {"name": "model_83/tf.math.sigmoid_366/Sigmoid", "op": "Sigmoid", "input": ["model_83/tf.math.add_497/Add"], "attr": {"T": {"type": "DT_FLOAT"}}}, {"name": "model_83/tf.math.sigmoid_367/Sigmoid", "op": "Sigmoid", "input": ["model_83/tf.math.add_498/Add"], "attr": {"T": {"type": "DT_FLOAT"}}}, {"name": "model_83/tf.math.add_496/Add", "op": "_FusedConv2D", "input": ["model_83/tf.compat.v1.pad_40/Pad", "model_83/tf.nn.convolution_395/convolution/filter", "model_83/tf.math.add_496/Add/y"], "device": "/device:CPU:0", "attr": {"epsilon": {"f": 0.0}, "num_host_args": {"i": "0"}, "explicit_paddings": {"list": {}}, "dilations": {"list": {"i": ["1", "1", "1", "1"]}}, "T": {"type": "DT_FLOAT"}, "filter_format": {"s": "SFdJTw=="}, "strides": {"list": {"i": ["1", "2", "2", "1"]}}, "TArgs": {"list": {"type": ["DT_FLOAT"]}}, "padding": {"s": "VkFMSUQ="}, "data_format": {"s": "TkhXQw=="}, "use_cudnn_on_gpu": {"b": true}, "fused_ops": {"list": {"s": ["Qmlhc0FkZA=="]}}, "num_args": {"i": "1"}, "leakyrelu_alpha": {"f": 0.2}}}, {"name": "model_83/tf.math.multiply_1608/Mul", "op": "Mul", "input": ["model_83/tf.math.add_497/Add", "model_83/tf.math.sigmoid_366/Sigmoid"], "attr": {"T": {"type": "DT_FLOAT"}}}, {"name": "model_83/tf.math.multiply_1612/Mul", "op": "Mul", "input": ["model_83/tf.math.add_498/Add", "model_83/tf.math.sigmoid_367/Sigmoid"], "attr": {"T": {"type": "DT_FLOAT"}}}, {"name": "model_83/tf.math.sigmoid_365/Sigmoid", "op": "Sigmoid", "input": ["model_83/tf.math.add_496/Add"], "attr": {"T": {"type": "DT_FLOAT"}}}, {"name": "model_83/tf.math.add_499/Add", "op": "_FusedConv2D", "input": ["model_83/tf.math.multiply_1608/Mul", "model_83/tf.nn.convolution_398/convolution/filter", "model_83/tf.math.add_499/Add/y"], "device": "/device:CPU:0", "attr": {"epsilon": {"f": 0.0}, "use_cudnn_on_gpu": {"b": true}, "TArgs": {"list": {"type": ["DT_FLOAT"]}}, "leakyrelu_alpha": {"f": 0.2}, "T": {"type": "DT_FLOAT"}, "data_format": {"s": "TkhXQw=="}, "dilations": {"list": {"i": ["1", "1", "1", "1"]}}, "num_host_args": {"i": "0"}, "explicit_paddings": {"list": {}}, "fused_ops": {"list": {"s": ["Qmlhc0FkZA=="]}}, "padding": {"s": "U0FNRQ=="}, "filter_format": {"s": "SFdJTw=="}, "num_args": {"i": "1"}, "strides": {"list": {"i": ["1", "1", "1", "1"]}}}}, {"name": "model_83/tf.math.add_500/Add", "op": "_FusedConv2D", "input": ["model_83/tf.math.multiply_1612/Mul", "model_83/tf.nn.convolution_399/convolution/filter", "model_83/tf.math.add_500/Add/y"], "device": "/device:CPU:0", "attr": {"num_args": {"i": "1"}, "fused_ops": {"list": {"s": ["Qmlhc0FkZA=="]}}, "TArgs": {"list": {"type": ["DT_FLOAT"]}}, "dilations": {"list": {"i": ["1", "1", "1", "1"]}}, "data_format": {"s": "TkhXQw=="}, "filter_format": {"s": "SFdJTw=="}, "padding": {"s": "U0FNRQ=="}, "strides": {"list": {"i": ["1", "1", "1", "1"]}}, "num_host_args": {"i": "0"}, "epsilon": {"f": 0.0}, "explicit_paddings": {"list": {}}, "use_cudnn_on_gpu": {"b": true}, "T": {"type": "DT_FLOAT"}, "leakyrelu_alpha": {"f": 0.2}}}, {"name": "model_83/tf.math.multiply_1604/Mul", "op": "Mul", "input": ["model_83/tf.math.add_496/Add", "model_83/tf.math.sigmoid_365/Sigmoid"], "attr": {"T": {"type": "DT_FLOAT"}}}, {"name": "model_83/tf.math.sigmoid_368/Sigmoid", "op": "Sigmoid", "input": ["model_83/tf.math.add_499/Add"], "attr": {"T": {"type": "DT_FLOAT"}}}, {"name": "model_83/tf.math.sigmoid_369/Sigmoid", "op": "Sigmoid", "input": ["model_83/tf.math.add_500/Add"], "attr": {"T": {"type": "DT_FLOAT"}}}, {"name": "model_83/tf.concat_119/concat", "op": "ConcatV2", "input": ["model_83/tf.math.multiply_1604/Mul", "model_83/tf.math.multiply_1584/Mul", "model_83/tf.concat_119/concat/axis"], "attr": {"T": {"type": "DT_FLOAT"}, "N": {"i": "2"}, "Tidx": {"type": "DT_INT32"}}}, {"name": "model_83/tf.math.multiply_1616/Mul", "op": "Mul", "input": ["model_83/tf.math.add_499/Add", "model_83/tf.math.sigmoid_368/Sigmoid"], "attr": {"T": {"type": "DT_FLOAT"}}}, {"name": "model_83/tf.math.multiply_1620/Mul", "op": "Mul", "input": ["model_83/tf.math.add_500/Add", "model_83/tf.math.sigmoid_369/Sigmoid"], "attr": {"T": {"type": "DT_FLOAT"}}}, {"name": "model_83/tf.math.add_501/Add", "op": "_FusedConv2D", "input": ["model_83/tf.concat_119/concat", "model_83/tf.nn.convolution_400/convolution/filter", "model_83/tf.math.add_501/Add/y"], "device": "/device:CPU:0", "attr": {"num_host_args": {"i": "0"}, "T": {"type": "DT_FLOAT"}, "dilations": {"list": {"i": ["1", "1", "1", "1"]}}, "data_format": {"s": "TkhXQw=="}, "fused_ops": {"list": {"s": ["Qmlhc0FkZA=="]}}, "num_args": {"i": "1"}, "strides": {"list": {"i": ["1", "1", "1", "1"]}}, "padding": {"s": "U0FNRQ=="}, "filter_format": {"s": "SFdJTw=="}, "explicit_paddings": {"list": {}}, "use_cudnn_on_gpu": {"b": true}, "TArgs": {"list": {"type": ["DT_FLOAT"]}}, "leakyrelu_alpha": {"f": 0.2}, "epsilon": {"f": 0.0}}}, {"name": "model_83/tf.math.add_502/Add", "op": "_FusedConv2D", "input": ["model_83/tf.math.multiply_1616/Mul", "model_83/tf.nn.convolution_401/convolution/filter", "model_83/tf.math.add_502/Add/y"], "device": "/device:CPU:0", "attr": {"dilations": {"list": {"i": ["1", "1", "1", "1"]}}, "T": {"type": "DT_FLOAT"}, "epsilon": {"f": 0.0}, "data_format": {"s": "TkhXQw=="}, "leakyrelu_alpha": {"f": 0.2}, "padding": {"s": "U0FNRQ=="}, "num_args": {"i": "1"}, "num_host_args": {"i": "0"}, "fused_ops": {"list": {"s": ["Qmlhc0FkZA=="]}}, "explicit_paddings": {"list": {}}, "strides": {"list": {"i": ["1", "1", "1", "1"]}}, "filter_format": {"s": "SFdJTw=="}, "TArgs": {"list": {"type": ["DT_FLOAT"]}}, "use_cudnn_on_gpu": {"b": true}}}, {"name": "model_83/tf.math.add_503/Add", "op": "_FusedConv2D", "input": ["model_83/tf.math.multiply_1620/Mul", "model_83/tf.nn.convolution_402/convolution/filter", "model_83/tf.math.add_503/Add/y"], "device": "/device:CPU:0", "attr": {"dilations": {"list": {"i": ["1", "1", "1", "1"]}}, "use_cudnn_on_gpu": {"b": true}, "num_args": {"i": "1"}, "leakyrelu_alpha": {"f": 0.2}, "data_format": {"s": "TkhXQw=="}, "TArgs": {"list": {"type": ["DT_FLOAT"]}}, "filter_format": {"s": "SFdJTw=="}, "T": {"type": "DT_FLOAT"}, "padding": {"s": "U0FNRQ=="}, "num_host_args": {"i": "0"}, "fused_ops": {"list": {"s": ["Qmlhc0FkZA=="]}}, "explicit_paddings": {"list": {}}, "strides": {"list": {"i": ["1", "1", "1", "1"]}}, "epsilon": {"f": 0.0}}}, {"name": "model_83/tf.math.sigmoid_370/Sigmoid", "op": "Sigmoid", "input": ["model_83/tf.math.add_501/Add"], "attr": {"T": {"type": "DT_FLOAT"}}}, {"name": "model_83/tf.concat_120/concat", "op": "ConcatV2", "input": ["model_83/tf.math.add_502/Add", "model_83/tf.math.add_503/Add", "model_83/tf.concat_120/concat/axis"], "attr": {"Tidx": {"type": "DT_INT32"}, "T": {"type": "DT_FLOAT"}, "N": {"i": "2"}}}, {"name": "model_83/tf.math.multiply_1624/Mul", "op": "Mul", "input": ["model_83/tf.math.add_501/Add", "model_83/tf.math.sigmoid_370/Sigmoid"], "attr": {"T": {"type": "DT_FLOAT"}}}, {"name": "model_83/tf.compat.v1.transpose_142/transpose", "op": "Transpose", "input": ["model_83/tf.concat_120/concat", "model_83/tf.compat.v1.transpose_142/transpose/perm"], "attr": {"Tperm": {"type": "DT_INT32"}, "T": {"type": "DT_FLOAT"}}}, {"name": "model_83/tf.strided_slice_112/StridedSlice", "op": "StridedSlice", "input": ["model_83/tf.math.multiply_1624/Mul", "model_83/tf.strided_slice_112/ones_like/tensor", "model_83/tf.strided_slice_112/StridedSlice/end", "model_83/tf.strided_slice_112/ones_like"], "attr": {"ellipsis_mask": {"i": "0"}, "shrink_axis_mask": {"i": "0"}, "Index": {"type": "DT_INT64"}, "begin_mask": {"i": "15"}, "end_mask": {"i": "7"}, "T": {"type": "DT_FLOAT"}, "new_axis_mask": {"i": "0"}}}, {"name": "model_83/tf.strided_slice_113/StridedSlice", "op": "StridedSlice", "input": ["model_83/tf.math.multiply_1624/Mul", "model_83/tf.strided_slice_113/ones_like/tensor", "model_83/tf.strided_slice_113/StridedSlice/end", "model_83/tf.strided_slice_113/ones_like"], "attr": {"T": {"type": "DT_FLOAT"}, "Index": {"type": "DT_INT64"}, "shrink_axis_mask": {"i": "0"}, "end_mask": {"i": "7"}, "ellipsis_mask": {"i": "0"}, "new_axis_mask": {"i": "0"}, "begin_mask": {"i": "7"}}}, {"name": "model_83/tf.reshape_77/Reshape", "op": "Reshape", "input": ["model_83/tf.compat.v1.transpose_142/transpose", "model_83/tf.reshape_77/Reshape/shape"], "attr": {"T": {"type": "DT_FLOAT"}, "Tshape": {"type": "DT_INT32"}}}, {"name": "model_83/tf.math.add_504/Add", "op": "_FusedConv2D", "input": ["model_83/tf.strided_slice_113/StridedSlice", "model_83/tf.nn.convolution_403/convolution/filter", "model_83/tf.math.add_504/Add/y"], "device": "/device:CPU:0", "attr": {"epsilon": {"f": 0.0}, "strides": {"list": {"i": ["1", "1", "1", "1"]}}, "TArgs": {"list": {"type": ["DT_FLOAT"]}}, "data_format": {"s": "TkhXQw=="}, "fused_ops": {"list": {"s": ["Qmlhc0FkZA=="]}}, "padding": {"s": "U0FNRQ=="}, "dilations": {"list": {"i": ["1", "1", "1", "1"]}}, "T": {"type": "DT_FLOAT"}, "num_host_args": {"i": "0"}, "use_cudnn_on_gpu": {"b": true}, "filter_format": {"s": "SFdJTw=="}, "explicit_paddings": {"list": {}}, "leakyrelu_alpha": {"f": 0.2}, "num_args": {"i": "1"}}}, {"name": "model_83/tf.math.sigmoid_371/Sigmoid", "op": "Sigmoid", "input": ["model_83/tf.math.add_504/Add"], "attr": {"T": {"type": "DT_FLOAT"}}}, {"name": "model_83/tf.math.multiply_1628/Mul", "op": "Mul", "input": ["model_83/tf.math.add_504/Add", "model_83/tf.math.sigmoid_371/Sigmoid"], "attr": {"T": {"type": "DT_FLOAT"}}}, {"name": "model_83/tf.math.add_505/Add", "op": "_FusedConv2D", "input": ["model_83/tf.math.multiply_1628/Mul", "model_83/tf.nn.convolution_404/convolution/filter", "model_83/tf.math.add_505/Add/y"], "device": "/device:CPU:0", "attr": {"dilations": {"list": {"i": ["1", "1", "1", "1"]}}, "leakyrelu_alpha": {"f": 0.2}, "T": {"type": "DT_FLOAT"}, "num_host_args": {"i": "0"}, "filter_format": {"s": "SFdJTw=="}, "data_format": {"s": "TkhXQw=="}, "num_args": {"i": "1"}, "explicit_paddings": {"list": {}}, "TArgs": {"list": {"type": ["DT_FLOAT"]}}, "strides": {"list": {"i": ["1", "1", "1", "1"]}}, "padding": {"s": "U0FNRQ=="}, "use_cudnn_on_gpu": {"b": true}, "epsilon": {"f": 0.0}, "fused_ops": {"list": {"s": ["Qmlhc0FkZA=="]}}}}, {"name": "model_83/tf.math.sigmoid_372/Sigmoid", "op": "Sigmoid", "input": ["model_83/tf.math.add_505/Add"], "attr": {"T": {"type": "DT_FLOAT"}}}, {"name": "model_83/tf.math.multiply_1632/Mul", "op": "Mul", "input": ["model_83/tf.math.add_505/Add", "model_83/tf.math.sigmoid_372/Sigmoid"], "attr": {"T": {"type": "DT_FLOAT"}}}, {"name": "model_83/tf.concat_121/concat", "op": "ConcatV2", "input": ["model_83/tf.strided_slice_112/StridedSlice", "model_83/tf.strided_slice_113/StridedSlice", "model_83/tf.math.multiply_1632/Mul", "model_83/tf.concat_121/concat/axis"], "attr": {"Tidx": {"type": "DT_INT32"}, "T": {"type": "DT_FLOAT"}, "N": {"i": "3"}}}, {"name": "model_83/tf.math.add_506/Add", "op": "_FusedConv2D", "input": ["model_83/tf.concat_121/concat", "model_83/tf.nn.convolution_405/convolution/filter", "model_83/tf.math.add_506/Add/y"], "device": "/device:CPU:0", "attr": {"use_cudnn_on_gpu": {"b": true}, "data_format": {"s": "TkhXQw=="}, "dilations": {"list": {"i": ["1", "1", "1", "1"]}}, "leakyrelu_alpha": {"f": 0.2}, "num_args": {"i": "1"}, "epsilon": {"f": 0.0}, "explicit_paddings": {"list": {}}, "T": {"type": "DT_FLOAT"}, "fused_ops": {"list": {"s": ["Qmlhc0FkZA=="]}}, "filter_format": {"s": "SFdJTw=="}, "padding": {"s": "U0FNRQ=="}, "TArgs": {"list": {"type": ["DT_FLOAT"]}}, "num_host_args": {"i": "0"}, "strides": {"list": {"i": ["1", "1", "1", "1"]}}}}, {"name": "model_83/tf.math.sigmoid_373/Sigmoid", "op": "Sigmoid", "input": ["model_83/tf.math.add_506/Add"], "attr": {"T": {"type": "DT_FLOAT"}}}, {"name": "model_83/tf.math.multiply_1636/Mul", "op": "Mul", "input": ["model_83/tf.math.add_506/Add", "model_83/tf.math.sigmoid_373/Sigmoid"], "attr": {"T": {"type": "DT_FLOAT"}}}, {"name": "model_83/tf.math.add_508/Add", "op": "_FusedConv2D", "input": ["model_83/tf.math.multiply_1636/Mul", "model_83/tf.nn.convolution_407/convolution/filter", "model_83/tf.math.add_508/Add/y"], "device": "/device:CPU:0", "attr": {"num_host_args": {"i": "0"}, "epsilon": {"f": 0.0}, "padding": {"s": "U0FNRQ=="}, "filter_format": {"s": "SFdJTw=="}, "strides": {"list": {"i": ["1", "1", "1", "1"]}}, "fused_ops": {"list": {"s": ["Qmlhc0FkZA=="]}}, "num_args": {"i": "1"}, "data_format": {"s": "TkhXQw=="}, "dilations": {"list": {"i": ["1", "1", "1", "1"]}}, "use_cudnn_on_gpu": {"b": true}, "T": {"type": "DT_FLOAT"}, "explicit_paddings": {"list": {}}, "TArgs": {"list": {"type": ["DT_FLOAT"]}}, "leakyrelu_alpha": {"f": 0.2}}}, {"name": "model_83/tf.math.add_509/Add", "op": "_FusedConv2D", "input": ["model_83/tf.math.multiply_1636/Mul", "model_83/tf.nn.convolution_408/convolution/filter", "model_83/tf.math.add_509/Add/y"], "device": "/device:CPU:0", "attr": {"explicit_paddings": {"list": {}}, "dilations": {"list": {"i": ["1", "1", "1", "1"]}}, "filter_format": {"s": "SFdJTw=="}, "TArgs": {"list": {"type": ["DT_FLOAT"]}}, "num_args": {"i": "1"}, "use_cudnn_on_gpu": {"b": true}, "epsilon": {"f": 0.0}, "leakyrelu_alpha": {"f": 0.2}, "fused_ops": {"list": {"s": ["Qmlhc0FkZA=="]}}, "padding": {"s": "U0FNRQ=="}, "strides": {"list": {"i": ["1", "1", "1", "1"]}}, "T": {"type": "DT_FLOAT"}, "num_host_args": {"i": "0"}, "data_format": {"s": "TkhXQw=="}}}, {"name": "model_83/tf.compat.v1.pad_41/Pad", "op": "Pad", "input": ["model_83/tf.math.multiply_1636/Mul", "model_83/tf.compat.v1.pad_41/Pad/paddings"], "attr": {"Tpaddings": {"type": "DT_INT32"}, "T": {"type": "DT_FLOAT"}}}, {"name": "model_83/tf.math.sigmoid_375/Sigmoid", "op": "Sigmoid", "input": ["model_83/tf.math.add_508/Add"], "attr": {"T": {"type": "DT_FLOAT"}}}, {"name": "model_83/tf.math.sigmoid_376/Sigmoid", "op": "Sigmoid", "input": ["model_83/tf.math.add_509/Add"], "attr": {"T": {"type": "DT_FLOAT"}}}, {"name": "model_83/tf.math.add_507/Add", "op": "_FusedConv2D", "input": ["model_83/tf.compat.v1.pad_41/Pad", "model_83/tf.nn.convolution_406/convolution/filter", "model_83/tf.math.add_507/Add/y"], "device": "/device:CPU:0", "attr": {"num_args": {"i": "1"}, "leakyrelu_alpha": {"f": 0.2}, "num_host_args": {"i": "0"}, "fused_ops": {"list": {"s": ["Qmlhc0FkZA=="]}}, "use_cudnn_on_gpu": {"b": true}, "T": {"type": "DT_FLOAT"}, "dilations": {"list": {"i": ["1", "1", "1", "1"]}}, "TArgs": {"list": {"type": ["DT_FLOAT"]}}, "epsilon": {"f": 0.0}, "data_format": {"s": "TkhXQw=="}, "strides": {"list": {"i": ["1", "2", "2", "1"]}}, "explicit_paddings": {"list": {}}, "filter_format": {"s": "SFdJTw=="}, "padding": {"s": "VkFMSUQ="}}}, {"name": "model_83/tf.math.multiply_1644/Mul", "op": "Mul", "input": ["model_83/tf.math.add_508/Add", "model_83/tf.math.sigmoid_375/Sigmoid"], "attr": {"T": {"type": "DT_FLOAT"}}}, {"name": "model_83/tf.math.multiply_1648/Mul", "op": "Mul", "input": ["model_83/tf.math.add_509/Add", "model_83/tf.math.sigmoid_376/Sigmoid"], "attr": {"T": {"type": "DT_FLOAT"}}}, {"name": "model_83/tf.math.sigmoid_374/Sigmoid", "op": "Sigmoid", "input": ["model_83/tf.math.add_507/Add"], "attr": {"T": {"type": "DT_FLOAT"}}}, {"name": "model_83/tf.math.add_510/Add", "op": "_FusedConv2D", "input": ["model_83/tf.math.multiply_1644/Mul", "model_83/tf.nn.convolution_409/convolution/filter", "model_83/tf.math.add_510/Add/y"], "device": "/device:CPU:0", "attr": {"padding": {"s": "U0FNRQ=="}, "use_cudnn_on_gpu": {"b": true}, "dilations": {"list": {"i": ["1", "1", "1", "1"]}}, "explicit_paddings": {"list": {}}, "fused_ops": {"list": {"s": ["Qmlhc0FkZA=="]}}, "leakyrelu_alpha": {"f": 0.2}, "filter_format": {"s": "SFdJTw=="}, "TArgs": {"list": {"type": ["DT_FLOAT"]}}, "num_host_args": {"i": "0"}, "T": {"type": "DT_FLOAT"}, "epsilon": {"f": 0.0}, "strides": {"list": {"i": ["1", "1", "1", "1"]}}, "num_args": {"i": "1"}, "data_format": {"s": "TkhXQw=="}}}, {"name": "model_83/tf.math.add_511/Add", "op": "_FusedConv2D", "input": ["model_83/tf.math.multiply_1648/Mul", "model_83/tf.nn.convolution_410/convolution/filter", "model_83/tf.math.add_511/Add/y"], "device": "/device:CPU:0", "attr": {"padding": {"s": "U0FNRQ=="}, "fused_ops": {"list": {"s": ["Qmlhc0FkZA=="]}}, "T": {"type": "DT_FLOAT"}, "explicit_paddings": {"list": {}}, "dilations": {"list": {"i": ["1", "1", "1", "1"]}}, "filter_format": {"s": "SFdJTw=="}, "data_format": {"s": "TkhXQw=="}, "num_args": {"i": "1"}, "strides": {"list": {"i": ["1", "1", "1", "1"]}}, "num_host_args": {"i": "0"}, "TArgs": {"list": {"type": ["DT_FLOAT"]}}, "leakyrelu_alpha": {"f": 0.2}, "use_cudnn_on_gpu": {"b": true}, "epsilon": {"f": 0.0}}}, {"name": "model_83/tf.math.multiply_1640/Mul", "op": "Mul", "input": ["model_83/tf.math.add_507/Add", "model_83/tf.math.sigmoid_374/Sigmoid"], "attr": {"T": {"type": "DT_FLOAT"}}}, {"name": "model_83/tf.math.sigmoid_377/Sigmoid", "op": "Sigmoid", "input": ["model_83/tf.math.add_510/Add"], "attr": {"T": {"type": "DT_FLOAT"}}}, {"name": "model_83/tf.math.sigmoid_378/Sigmoid", "op": "Sigmoid", "input": ["model_83/tf.math.add_511/Add"], "attr": {"T": {"type": "DT_FLOAT"}}}, {"name": "model_83/tf.concat_122/concat", "op": "ConcatV2", "input": ["model_83/tf.math.multiply_1640/Mul", "model_83/tf.math.multiply_1568/Mul", "model_83/tf.concat_122/concat/axis"], "attr": {"T": {"type": "DT_FLOAT"}, "Tidx": {"type": "DT_INT32"}, "N": {"i": "2"}}}, {"name": "model_83/tf.math.multiply_1652/Mul", "op": "Mul", "input": ["model_83/tf.math.add_510/Add", "model_83/tf.math.sigmoid_377/Sigmoid"], "attr": {"T": {"type": "DT_FLOAT"}}}, {"name": "model_83/tf.math.multiply_1656/Mul", "op": "Mul", "input": ["model_83/tf.math.add_511/Add", "model_83/tf.math.sigmoid_378/Sigmoid"], "attr": {"T": {"type": "DT_FLOAT"}}}, {"name": "model_83/tf.math.add_512/Add", "op": "_FusedConv2D", "input": ["model_83/tf.concat_122/concat", "model_83/tf.nn.convolution_411/convolution/filter", "model_83/tf.math.add_512/Add/y"], "device": "/device:CPU:0", "attr": {"dilations": {"list": {"i": ["1", "1", "1", "1"]}}, "filter_format": {"s": "SFdJTw=="}, "fused_ops": {"list": {"s": ["Qmlhc0FkZA=="]}}, "explicit_paddings": {"list": {}}, "use_cudnn_on_gpu": {"b": true}, "strides": {"list": {"i": ["1", "1", "1", "1"]}}, "padding": {"s": "U0FNRQ=="}, "TArgs": {"list": {"type": ["DT_FLOAT"]}}, "num_args": {"i": "1"}, "T": {"type": "DT_FLOAT"}, "leakyrelu_alpha": {"f": 0.2}, "epsilon": {"f": 0.0}, "data_format": {"s": "TkhXQw=="}, "num_host_args": {"i": "0"}}}, {"name": "model_83/tf.math.add_513/Add", "op": "_FusedConv2D", "input": ["model_83/tf.math.multiply_1652/Mul", "model_83/tf.nn.convolution_412/convolution/filter", "model_83/tf.math.add_513/Add/y"], "device": "/device:CPU:0", "attr": {"use_cudnn_on_gpu": {"b": true}, "explicit_paddings": {"list": {}}, "strides": {"list": {"i": ["1", "1", "1", "1"]}}, "filter_format": {"s": "SFdJTw=="}, "data_format": {"s": "TkhXQw=="}, "num_host_args": {"i": "0"}, "TArgs": {"list": {"type": ["DT_FLOAT"]}}, "padding": {"s": "U0FNRQ=="}, "T": {"type": "DT_FLOAT"}, "fused_ops": {"list": {"s": ["Qmlhc0FkZA=="]}}, "epsilon": {"f": 0.0}, "leakyrelu_alpha": {"f": 0.2}, "dilations": {"list": {"i": ["1", "1", "1", "1"]}}, "num_args": {"i": "1"}}}, {"name": "model_83/tf.math.add_514/Add", "op": "_FusedConv2D", "input": ["model_83/tf.math.multiply_1656/Mul", "model_83/tf.nn.convolution_413/convolution/filter", "model_83/tf.math.add_514/Add/y"], "device": "/device:CPU:0", "attr": {"padding": {"s": "U0FNRQ=="}, "strides": {"list": {"i": ["1", "1", "1", "1"]}}, "data_format": {"s": "TkhXQw=="}, "T": {"type": "DT_FLOAT"}, "use_cudnn_on_gpu": {"b": true}, "filter_format": {"s": "SFdJTw=="}, "num_host_args": {"i": "0"}, "explicit_paddings": {"list": {}}, "num_args": {"i": "1"}, "leakyrelu_alpha": {"f": 0.2}, "fused_ops": {"list": {"s": ["Qmlhc0FkZA=="]}}, "epsilon": {"f": 0.0}, "TArgs": {"list": {"type": ["DT_FLOAT"]}}, "dilations": {"list": {"i": ["1", "1", "1", "1"]}}}}, {"name": "model_83/tf.math.sigmoid_379/Sigmoid", "op": "Sigmoid", "input": ["model_83/tf.math.add_512/Add"], "attr": {"T": {"type": "DT_FLOAT"}}}, {"name": "model_83/tf.concat_123/concat", "op": "ConcatV2", "input": ["model_83/tf.math.add_513/Add", "model_83/tf.math.add_514/Add", "model_83/tf.concat_123/concat/axis"], "attr": {"N": {"i": "2"}, "Tidx": {"type": "DT_INT32"}, "T": {"type": "DT_FLOAT"}}}, {"name": "model_83/tf.math.multiply_1660/Mul", "op": "Mul", "input": ["model_83/tf.math.add_512/Add", "model_83/tf.math.sigmoid_379/Sigmoid"], "attr": {"T": {"type": "DT_FLOAT"}}}, {"name": "model_83/tf.compat.v1.transpose_147/transpose", "op": "Transpose", "input": ["model_83/tf.concat_123/concat", "model_83/tf.compat.v1.transpose_147/transpose/perm"], "attr": {"T": {"type": "DT_FLOAT"}, "Tperm": {"type": "DT_INT32"}}}, {"name": "model_83/tf.strided_slice_114/StridedSlice", "op": "StridedSlice", "input": ["model_83/tf.math.multiply_1660/Mul", "model_83/tf.strided_slice_114/ones_like/tensor", "model_83/tf.strided_slice_114/StridedSlice/end", "model_83/tf.strided_slice_114/ones_like"], "attr": {"Index": {"type": "DT_INT64"}, "shrink_axis_mask": {"i": "0"}, "T": {"type": "DT_FLOAT"}, "ellipsis_mask": {"i": "0"}, "new_axis_mask": {"i": "0"}, "end_mask": {"i": "7"}, "begin_mask": {"i": "15"}}}, {"name": "model_83/tf.strided_slice_115/StridedSlice", "op": "StridedSlice", "input": ["model_83/tf.math.multiply_1660/Mul", "model_83/tf.strided_slice_115/ones_like/tensor", "model_83/tf.strided_slice_115/StridedSlice/end", "model_83/tf.strided_slice_115/ones_like"], "attr": {"end_mask": {"i": "7"}, "new_axis_mask": {"i": "0"}, "Index": {"type": "DT_INT64"}, "begin_mask": {"i": "7"}, "shrink_axis_mask": {"i": "0"}, "T": {"type": "DT_FLOAT"}, "ellipsis_mask": {"i": "0"}}}, {"name": "model_83/tf.reshape_80/Reshape", "op": "Reshape", "input": ["model_83/tf.compat.v1.transpose_147/transpose", "model_83/tf.reshape_80/Reshape/shape"], "attr": {"T": {"type": "DT_FLOAT"}, "Tshape": {"type": "DT_INT32"}}}, {"name": "model_83/tf.math.add_515/Add", "op": "_FusedConv2D", "input": ["model_83/tf.strided_slice_115/StridedSlice", "model_83/tf.nn.convolution_414/convolution/filter", "model_83/tf.math.add_515/Add/y"], "device": "/device:CPU:0", "attr": {"explicit_paddings": {"list": {}}, "TArgs": {"list": {"type": ["DT_FLOAT"]}}, "filter_format": {"s": "SFdJTw=="}, "data_format": {"s": "TkhXQw=="}, "strides": {"list": {"i": ["1", "1", "1", "1"]}}, "num_host_args": {"i": "0"}, "leakyrelu_alpha": {"f": 0.2}, "T": {"type": "DT_FLOAT"}, "padding": {"s": "U0FNRQ=="}, "use_cudnn_on_gpu": {"b": true}, "fused_ops": {"list": {"s": ["Qmlhc0FkZA=="]}}, "num_args": {"i": "1"}, "dilations": {"list": {"i": ["1", "1", "1", "1"]}}, "epsilon": {"f": 0.0}}}, {"name": "model_83/tf.math.sigmoid_380/Sigmoid", "op": "Sigmoid", "input": ["model_83/tf.math.add_515/Add"], "attr": {"T": {"type": "DT_FLOAT"}}}, {"name": "model_83/tf.math.multiply_1664/Mul", "op": "Mul", "input": ["model_83/tf.math.add_515/Add", "model_83/tf.math.sigmoid_380/Sigmoid"], "attr": {"T": {"type": "DT_FLOAT"}}}, {"name": "model_83/tf.math.add_516/Add", "op": "_FusedConv2D", "input": ["model_83/tf.math.multiply_1664/Mul", "model_83/tf.nn.convolution_415/convolution/filter", "model_83/tf.math.add_516/Add/y"], "device": "/device:CPU:0", "attr": {"explicit_paddings": {"list": {}}, "num_host_args": {"i": "0"}, "leakyrelu_alpha": {"f": 0.2}, "num_args": {"i": "1"}, "TArgs": {"list": {"type": ["DT_FLOAT"]}}, "padding": {"s": "U0FNRQ=="}, "dilations": {"list": {"i": ["1", "1", "1", "1"]}}, "strides": {"list": {"i": ["1", "1", "1", "1"]}}, "epsilon": {"f": 0.0}, "T": {"type": "DT_FLOAT"}, "filter_format": {"s": "SFdJTw=="}, "data_format": {"s": "TkhXQw=="}, "use_cudnn_on_gpu": {"b": true}, "fused_ops": {"list": {"s": ["Qmlhc0FkZA=="]}}}}, {"name": "model_83/tf.math.sigmoid_381/Sigmoid", "op": "Sigmoid", "input": ["model_83/tf.math.add_516/Add"], "attr": {"T": {"type": "DT_FLOAT"}}}, {"name": "model_83/tf.math.multiply_1668/Mul", "op": "Mul", "input": ["model_83/tf.math.add_516/Add", "model_83/tf.math.sigmoid_381/Sigmoid"], "attr": {"T": {"type": "DT_FLOAT"}}}, {"name": "model_83/tf.concat_124/concat", "op": "ConcatV2", "input": ["model_83/tf.strided_slice_114/StridedSlice", "model_83/tf.strided_slice_115/StridedSlice", "model_83/tf.math.multiply_1668/Mul", "model_83/tf.concat_124/concat/axis"], "attr": {"T": {"type": "DT_FLOAT"}, "N": {"i": "3"}, "Tidx": {"type": "DT_INT32"}}}, {"name": "model_83/tf.math.add_517/Add", "op": "_FusedConv2D", "input": ["model_83/tf.concat_124/concat", "model_83/tf.nn.convolution_416/convolution/filter", "model_83/tf.math.add_517/Add/y"], "device": "/device:CPU:0", "attr": {"dilations": {"list": {"i": ["1", "1", "1", "1"]}}, "leakyrelu_alpha": {"f": 0.2}, "explicit_paddings": {"list": {}}, "T": {"type": "DT_FLOAT"}, "epsilon": {"f": 0.0}, "data_format": {"s": "TkhXQw=="}, "fused_ops": {"list": {"s": ["Qmlhc0FkZA=="]}}, "strides": {"list": {"i": ["1", "1", "1", "1"]}}, "num_host_args": {"i": "0"}, "use_cudnn_on_gpu": {"b": true}, "num_args": {"i": "1"}, "TArgs": {"list": {"type": ["DT_FLOAT"]}}, "filter_format": {"s": "SFdJTw=="}, "padding": {"s": "U0FNRQ=="}}}, {"name": "model_83/tf.math.sigmoid_382/Sigmoid", "op": "Sigmoid", "input": ["model_83/tf.math.add_517/Add"], "attr": {"T": {"type": "DT_FLOAT"}}}, {"name": "model_83/tf.math.multiply_1672/Mul", "op": "Mul", "input": ["model_83/tf.math.add_517/Add", "model_83/tf.math.sigmoid_382/Sigmoid"], "attr": {"T": {"type": "DT_FLOAT"}}}, {"name": "model_83/tf.math.add_518/Add", "op": "_FusedConv2D", "input": ["model_83/tf.math.multiply_1672/Mul", "model_83/tf.nn.convolution_417/convolution/filter", "model_83/tf.math.add_518/Add/y"], "device": "/device:CPU:0", "attr": {"filter_format": {"s": "SFdJTw=="}, "fused_ops": {"list": {"s": ["Qmlhc0FkZA=="]}}, "use_cudnn_on_gpu": {"b": true}, "num_args": {"i": "1"}, "explicit_paddings": {"list": {}}, "dilations": {"list": {"i": ["1", "1", "1", "1"]}}, "num_host_args": {"i": "0"}, "TArgs": {"list": {"type": ["DT_FLOAT"]}}, "T": {"type": "DT_FLOAT"}, "strides": {"list": {"i": ["1", "1", "1", "1"]}}, "epsilon": {"f": 0.0}, "leakyrelu_alpha": {"f": 0.2}, "padding": {"s": "U0FNRQ=="}, "data_format": {"s": "TkhXQw=="}}}, {"name": "model_83/tf.math.add_519/Add", "op": "_FusedConv2D", "input": ["model_83/tf.math.multiply_1672/Mul", "model_83/tf.nn.convolution_418/convolution/filter", "model_83/tf.math.add_519/Add/y"], "device": "/device:CPU:0", "attr": {"padding": {"s": "U0FNRQ=="}, "explicit_paddings": {"list": {}}, "fused_ops": {"list": {"s": ["Qmlhc0FkZA=="]}}, "T": {"type": "DT_FLOAT"}, "filter_format": {"s": "SFdJTw=="}, "data_format": {"s": "TkhXQw=="}, "leakyrelu_alpha": {"f": 0.2}, "strides": {"list": {"i": ["1", "1", "1", "1"]}}, "dilations": {"list": {"i": ["1", "1", "1", "1"]}}, "num_args": {"i": "1"}, "num_host_args": {"i": "0"}, "use_cudnn_on_gpu": {"b": true}, "TArgs": {"list": {"type": ["DT_FLOAT"]}}, "epsilon": {"f": 0.0}}}, {"name": "model_83/tf.math.sigmoid_383/Sigmoid", "op": "Sigmoid", "input": ["model_83/tf.math.add_518/Add"], "attr": {"T": {"type": "DT_FLOAT"}}}, {"name": "model_83/tf.math.sigmoid_384/Sigmoid", "op": "Sigmoid", "input": ["model_83/tf.math.add_519/Add"], "attr": {"T": {"type": "DT_FLOAT"}}}, {"name": "model_83/tf.math.multiply_1676/Mul", "op": "Mul", "input": ["model_83/tf.math.add_518/Add", "model_83/tf.math.sigmoid_383/Sigmoid"], "attr": {"T": {"type": "DT_FLOAT"}}}, {"name": "model_83/tf.math.multiply_1680/Mul", "op": "Mul", "input": ["model_83/tf.math.add_519/Add", "model_83/tf.math.sigmoid_384/Sigmoid"], "attr": {"T": {"type": "DT_FLOAT"}}}, {"name": "model_83/tf.math.add_520/Add", "op": "_FusedConv2D", "input": ["model_83/tf.math.multiply_1676/Mul", "model_83/tf.nn.convolution_419/convolution/filter", "model_83/tf.math.add_520/Add/y"], "device": "/device:CPU:0", "attr": {"epsilon": {"f": 0.0}, "data_format": {"s": "TkhXQw=="}, "leakyrelu_alpha": {"f": 0.2}, "strides": {"list": {"i": ["1", "1", "1", "1"]}}, "use_cudnn_on_gpu": {"b": true}, "padding": {"s": "U0FNRQ=="}, "fused_ops": {"list": {"s": ["Qmlhc0FkZA=="]}}, "TArgs": {"list": {"type": ["DT_FLOAT"]}}, "dilations": {"list": {"i": ["1", "1", "1", "1"]}}, "explicit_paddings": {"list": {}}, "T": {"type": "DT_FLOAT"}, "num_args": {"i": "1"}, "num_host_args": {"i": "0"}, "filter_format": {"s": "SFdJTw=="}}}, {"name": "model_83/tf.math.add_521/Add", "op": "_FusedConv2D", "input": ["model_83/tf.math.multiply_1680/Mul", "model_83/tf.nn.convolution_420/convolution/filter", "model_83/tf.math.add_521/Add/y"], "device": "/device:CPU:0", "attr": {"num_args": {"i": "1"}, "TArgs": {"list": {"type": ["DT_FLOAT"]}}, "padding": {"s": "U0FNRQ=="}, "epsilon": {"f": 0.0}, "dilations": {"list": {"i": ["1", "1", "1", "1"]}}, "num_host_args": {"i": "0"}, "strides": {"list": {"i": ["1", "1", "1", "1"]}}, "filter_format": {"s": "SFdJTw=="}, "data_format": {"s": "TkhXQw=="}, "fused_ops": {"list": {"s": ["Qmlhc0FkZA=="]}}, "use_cudnn_on_gpu": {"b": true}, "T": {"type": "DT_FLOAT"}, "explicit_paddings": {"list": {}}, "leakyrelu_alpha": {"f": 0.2}}}, {"name": "model_83/tf.math.sigmoid_385/Sigmoid", "op": "Sigmoid", "input": ["model_83/tf.math.add_520/Add"], "attr": {"T": {"type": "DT_FLOAT"}}}, {"name": "model_83/tf.math.sigmoid_386/Sigmoid", "op": "Sigmoid", "input": ["model_83/tf.math.add_521/Add"], "attr": {"T": {"type": "DT_FLOAT"}}}, {"name": "model_83/tf.math.multiply_1684/Mul", "op": "Mul", "input": ["model_83/tf.math.add_520/Add", "model_83/tf.math.sigmoid_385/Sigmoid"], "attr": {"T": {"type": "DT_FLOAT"}}}, {"name": "model_83/tf.math.multiply_1688/Mul", "op": "Mul", "input": ["model_83/tf.math.add_521/Add", "model_83/tf.math.sigmoid_386/Sigmoid"], "attr": {"T": {"type": "DT_FLOAT"}}}, {"name": "model_83/tf.math.add_522/Add", "op": "_FusedConv2D", "input": ["model_83/tf.math.multiply_1684/Mul", "model_83/tf.nn.convolution_421/convolution/filter", "model_83/tf.math.add_522/Add/y"], "device": "/device:CPU:0", "attr": {"num_args": {"i": "1"}, "fused_ops": {"list": {"s": ["Qmlhc0FkZA=="]}}, "dilations": {"list": {"i": ["1", "1", "1", "1"]}}, "TArgs": {"list": {"type": ["DT_FLOAT"]}}, "T": {"type": "DT_FLOAT"}, "num_host_args": {"i": "0"}, "leakyrelu_alpha": {"f": 0.2}, "explicit_paddings": {"list": {}}, "padding": {"s": "U0FNRQ=="}, "data_format": {"s": "TkhXQw=="}, "use_cudnn_on_gpu": {"b": true}, "strides": {"list": {"i": ["1", "1", "1", "1"]}}, "filter_format": {"s": "SFdJTw=="}, "epsilon": {"f": 0.0}}}, {"name": "model_83/tf.math.add_523/Add", "op": "_FusedConv2D", "input": ["model_83/tf.math.multiply_1688/Mul", "model_83/tf.nn.convolution_422/convolution/filter", "model_83/tf.math.add_523/Add/y"], "device": "/device:CPU:0", "attr": {"num_host_args": {"i": "0"}, "strides": {"list": {"i": ["1", "1", "1", "1"]}}, "use_cudnn_on_gpu": {"b": true}, "explicit_paddings": {"list": {}}, "leakyrelu_alpha": {"f": 0.2}, "fused_ops": {"list": {"s": ["Qmlhc0FkZA=="]}}, "filter_format": {"s": "SFdJTw=="}, "TArgs": {"list": {"type": ["DT_FLOAT"]}}, "epsilon": {"f": 0.0}, "padding": {"s": "U0FNRQ=="}, "dilations": {"list": {"i": ["1", "1", "1", "1"]}}, "data_format": {"s": "TkhXQw=="}, "T": {"type": "DT_FLOAT"}, "num_args": {"i": "1"}}}, {"name": "model_83/tf.concat_125/concat", "op": "ConcatV2", "input": ["model_83/tf.math.add_522/Add", "model_83/tf.math.add_523/Add", "model_83/tf.concat_125/concat/axis"], "attr": {"T": {"type": "DT_FLOAT"}, "N": {"i": "2"}, "Tidx": {"type": "DT_INT32"}}}, {"name": "model_83/tf.compat.v1.transpose_152/transpose", "op": "Transpose", "input": ["model_83/tf.concat_125/concat", "model_83/tf.compat.v1.transpose_152/transpose/perm"], "attr": {"T": {"type": "DT_FLOAT"}, "Tperm": {"type": "DT_INT32"}}}, {"name": "model_83/tf.reshape_83/Reshape", "op": "Reshape", "input": ["model_83/tf.compat.v1.transpose_152/transpose", "model_83/tf.reshape_83/Reshape/shape"], "attr": {"T": {"type": "DT_FLOAT"}, "Tshape": {"type": "DT_INT32"}}}, {"name": "model_83/tf.concat_126/concat", "op": "ConcatV2", "input": ["model_83/tf.reshape_77/Reshape", "model_83/tf.reshape_80/Reshape", "model_83/tf.reshape_83/Reshape", "model_83/tf.concat_126/concat/axis"], "attr": {"Tidx": {"type": "DT_INT32"}, "T": {"type": "DT_FLOAT"}, "N": {"i": "3"}}}, {"name": "model_83/tf.strided_slice_117/StridedSlice", "op": "StridedSlice", "input": ["model_83/tf.concat_126/concat", "model_83/tf.strided_slice_117/StridedSlice/begin", "model_83/tf.strided_slice_117/StridedSlice/end", "model_83/tf.strided_slice_117/StridedSlice/strides"], "attr": {"begin_mask": {"i": "5"}, "shrink_axis_mask": {"i": "0"}, "Index": {"type": "DT_INT64"}, "T": {"type": "DT_FLOAT"}, "end_mask": {"i": "5"}, "ellipsis_mask": {"i": "0"}, "new_axis_mask": {"i": "0"}}}, {"name": "model_83/tf.strided_slice_116/StridedSlice", "op": "StridedSlice", "input": ["model_83/tf.concat_126/concat", "model_83/tf.strided_slice_116/StridedSlice/begin", "model_83/tf.strided_slice_116/StridedSlice/end", "model_83/tf.strided_slice_116/StridedSlice/strides"], "attr": {"T": {"type": "DT_FLOAT"}, "begin_mask": {"i": "7"}, "end_mask": {"i": "5"}, "new_axis_mask": {"i": "0"}, "ellipsis_mask": {"i": "0"}, "shrink_axis_mask": {"i": "0"}, "Index": {"type": "DT_INT64"}}}, {"name": "model_83/tf.math.sigmoid_387/Sigmoid", "op": "Sigmoid", "input": ["model_83/tf.strided_slice_117/StridedSlice"], "attr": {"T": {"type": "DT_FLOAT"}}}, {"name": "model_83/tf.reshape_86/Reshape", "op": "Reshape", "input": ["model_83/tf.strided_slice_116/StridedSlice", "model_83/tf.reshape_86/Reshape/shape"], "attr": {"T": {"type": "DT_FLOAT"}, "Tshape": {"type": "DT_INT32"}}}, {"name": "model_83/tf.compat.v1.transpose_159/transpose", "op": "Transpose", "input": ["model_83/tf.reshape_86/Reshape", "model_83/tf.compat.v1.transpose_159/transpose/perm"], "attr": {"T": {"type": "DT_FLOAT"}, "Tperm": {"type": "DT_INT32"}}}, {"name": "model_83/tf.compat.v1.transpose_160/transpose", "op": "Transpose", "input": ["model_83/tf.compat.v1.transpose_159/transpose", "model_83/tf.compat.v1.transpose_160/transpose/perm"], "attr": {"T": {"type": "DT_FLOAT"}, "Tperm": {"type": "DT_INT32"}}}, {"name": "model_83/tf.nn.softmax_5//model.22/dfl/Softmax", "op": "Softmax", "input": ["model_83/tf.compat.v1.transpose_160/transpose"], "attr": {"T": {"type": "DT_FLOAT"}}}, {"name": "model_83/tf.nn.convolution_423/convolution", "op": "Conv2D", "input": ["model_83/tf.nn.softmax_5//model.22/dfl/Softmax", "model_83/tf.nn.convolution_423/convolution/filter"], "device": "/device:CPU:0", "attr": {"use_cudnn_on_gpu": {"b": true}, "strides": {"list": {"i": ["1", "1", "1", "1"]}}, "explicit_paddings": {"list": {}}, "padding": {"s": "U0FNRQ=="}, "T": {"type": "DT_FLOAT"}, "dilations": {"list": {"i": ["1", "1", "1", "1"]}}, "data_format": {"s": "TkhXQw=="}}}, {"name": "model_83/tf.compat.v1.transpose_165/transpose", "op": "Transpose", "input": ["model_83/tf.nn.convolution_423/convolution", "model_83/tf.compat.v1.transpose_165/transpose/perm"], "attr": {"T": {"type": "DT_FLOAT"}, "Tperm": {"type": "DT_INT32"}}}, {"name": "model_83/tf.reshape_89/Reshape", "op": "Reshape", "input": ["model_83/tf.compat.v1.transpose_165/transpose", "model_83/tf.reshape_89/Reshape/shape"], "attr": {"T": {"type": "DT_FLOAT"}, "Tshape": {"type": "DT_INT32"}}}, {"name": "model_83/tf.strided_slice_119/StridedSlice", "op": "StridedSlice", "input": ["model_83/tf.reshape_89/Reshape", "model_83/tf.strided_slice_119/ones_like/tensor", "model_83/tf.strided_slice_119/StridedSlice/end", "model_83/tf.strided_slice_119/ones_like"], "attr": {"Index": {"type": "DT_INT64"}, "shrink_axis_mask": {"i": "0"}, "end_mask": {"i": "5"}, "begin_mask": {"i": "5"}, "new_axis_mask": {"i": "0"}, "T": {"type": "DT_FLOAT"}, "ellipsis_mask": {"i": "0"}}}, {"name": "model_83/tf.strided_slice_118/StridedSlice", "op": "StridedSlice", "input": ["model_83/tf.reshape_89/Reshape", "model_83/tf.strided_slice_118/ones_like/tensor", "model_83/tf.strided_slice_118/StridedSlice/end", "model_83/tf.strided_slice_118/ones_like"], "attr": {"end_mask": {"i": "5"}, "ellipsis_mask": {"i": "0"}, "new_axis_mask": {"i": "0"}, "Index": {"type": "DT_INT64"}, "T": {"type": "DT_FLOAT"}, "begin_mask": {"i": "7"}, "shrink_axis_mask": {"i": "0"}}}, {"name": "model_83/tf.math.add_524/Add", "op": "AddV2", "input": ["model_83/86601", "model_83/tf.strided_slice_119/StridedSlice"], "attr": {"T": {"type": "DT_FLOAT"}}}, {"name": "model_83/tf.math.subtract_10/Sub", "op": "Sub", "input": ["model_83/86604", "model_83/tf.strided_slice_118/StridedSlice"], "attr": {"T": {"type": "DT_FLOAT"}}}, {"name": "model_83/tf.math.add_525/Add", "op": "AddV2", "input": ["model_83/tf.math.subtract_10/Sub", "model_83/tf.math.add_524/Add"], "attr": {"T": {"type": "DT_FLOAT"}}}, {"name": "model_83/tf.math.subtract_11/Sub", "op": "Sub", "input": ["model_83/tf.math.add_524/Add", "model_83/tf.math.subtract_10/Sub"], "attr": {"T": {"type": "DT_FLOAT"}}}, {"name": "model_83/tf.math.divide_5/truediv", "op": "Mul", "input": ["model_83/tf.math.add_525/Add", "ConstantFolding/model_83/tf.math.divide_5/truediv_recip"], "attr": {"T": {"type": "DT_FLOAT"}}}, {"name": "model_83/tf.concat_130/concat", "op": "ConcatV2", "input": ["model_83/tf.math.divide_5/truediv", "model_83/tf.math.subtract_11/Sub", "model_83/tf.concat_130/concat/axis"], "attr": {"Tidx": {"type": "DT_INT32"}, "T": {"type": "DT_FLOAT"}, "N": {"i": "2"}}}, {"name": "model_83/tf.math.multiply_1701/Mul", "op": "Mul", "input": ["model_83/tf.concat_130/concat", "model_83/tf.math.multiply_1701/Mul/y"], "attr": {"T": {"type": "DT_FLOAT"}}}, {"name": "model_83/output0/concat", "op": "ConcatV2", "input": ["model_83/tf.math.multiply_1701/Mul", "model_83/tf.math.sigmoid_387/Sigmoid", "model_83/output0/concat/axis"], "attr": {"Tidx": {"type": "DT_INT32"}, "N": {"i": "2"}, "T": {"type": "DT_FLOAT"}}}, {"name": "Identity", "op": "Identity", "input": ["model_83/output0/concat"], "attr": {"T": {"type": "DT_FLOAT"}}}], "library": {}, "versions": {"producer": 1994}}, "weightsManifest": [{"paths": ["group1-shard1of4.bin", "group1-shard2of4.bin", "group1-shard3of4.bin", "group1-shard4of4.bin"], "weights": [{"name": "ConstantFolding/model_83/tf.math.divide_5/truediv_recip", "shape": [1, 1, 1], "dtype": "float32"}, {"name": "model_83/86601", "shape": [1, 2, 33600], "dtype": "float32"}, {"name": "model_83/tf.strided_slice_119/ones_like/tensor", "shape": [3], "dtype": "int32"}, {"name": "model_83/tf.strided_slice_119/StridedSlice/end", "shape": [3], "dtype": "int32"}, {"name": "model_83/tf.strided_slice_119/ones_like", "shape": [3], "dtype": "int32"}, {"name": "model_83/86604", "shape": [1, 2, 33600], "dtype": "float32"}, {"name": "model_83/tf.strided_slice_116/StridedSlice/begin", "shape": [3], "dtype": "int32"}, {"name": "model_83/tf.strided_slice_116/StridedSlice/end", "shape": [3], "dtype": "int32"}, {"name": "model_83/tf.strided_slice_116/StridedSlice/strides", "shape": [3], "dtype": "int32"}, {"name": "model_83/tf.reshape_86/Reshape/shape", "shape": [4], "dtype": "int32"}, {"name": "model_83/tf.compat.v1.transpose_159/transpose/perm", "shape": [4], "dtype": "int32"}, {"name": "model_83/tf.compat.v1.transpose_160/transpose/perm", "shape": [4], "dtype": "int32"}, {"name": "model_83/tf.nn.convolution_423/convolution/filter", "shape": [1, 1, 16, 1], "dtype": "float32"}, {"name": "model_83/tf.compat.v1.transpose_165/transpose/perm", "shape": [4], "dtype": "int32"}, {"name": "model_83/tf.reshape_89/Reshape/shape", "shape": [3], "dtype": "int32"}, {"name": "model_83/tf.strided_slice_118/ones_like/tensor", "shape": [3], "dtype": "int32"}, {"name": "model_83/tf.strided_slice_118/StridedSlice/end", "shape": [3], "dtype": "int32"}, {"name": "model_83/tf.strided_slice_118/ones_like", "shape": [3], "dtype": "int32"}, {"name": "model_83/tf.concat_130/concat/axis", "shape": [], "dtype": "int32"}, {"name": "model_83/tf.math.multiply_1701/Mul/y", "shape": [1, 1, 33600], "dtype": "float32"}, {"name": "model_83/tf.nn.convolution_396/convolution/filter", "shape": [3, 3, 64, 64], "dtype": "float32"}, {"name": "model_83/tf.math.add_497/Add/y", "shape": [64], "dtype": "float32"}, {"name": "model_83/tf.nn.convolution_398/convolution/filter", "shape": [3, 3, 64, 64], "dtype": "float32"}, {"name": "model_83/tf.math.add_499/Add/y", "shape": [64], "dtype": "float32"}, {"name": "model_83/tf.nn.convolution_401/convolution/filter", "shape": [1, 1, 64, 64], "dtype": "float32"}, {"name": "model_83/tf.math.add_502/Add/y", "shape": [64], "dtype": "float32"}, {"name": "model_83/tf.nn.convolution_397/convolution/filter", "shape": [3, 3, 64, 64], "dtype": "float32"}, {"name": "model_83/tf.math.add_498/Add/y", "shape": [64], "dtype": "float32"}, {"name": "model_83/tf.nn.convolution_399/convolution/filter", "shape": [3, 3, 64, 64], "dtype": "float32"}, {"name": "model_83/tf.math.add_500/Add/y", "shape": [64], "dtype": "float32"}, {"name": "model_83/tf.nn.convolution_402/convolution/filter", "shape": [1, 1, 64, 2], "dtype": "float32"}, {"name": "model_83/tf.math.add_503/Add/y", "shape": [2], "dtype": "float32"}, {"name": "model_83/tf.concat_120/concat/axis", "shape": [], "dtype": "int32"}, {"name": "model_83/tf.compat.v1.transpose_142/transpose/perm", "shape": [4], "dtype": "int32"}, {"name": "model_83/tf.reshape_77/Reshape/shape", "shape": [3], "dtype": "int32"}, {"name": "model_83/tf.nn.convolution_407/convolution/filter", "shape": [3, 3, 128, 64], "dtype": "float32"}, {"name": "model_83/tf.math.add_508/Add/y", "shape": [64], "dtype": "float32"}, {"name": "model_83/tf.nn.convolution_409/convolution/filter", "shape": [3, 3, 64, 64], "dtype": "float32"}, {"name": "model_83/tf.math.add_510/Add/y", "shape": [64], "dtype": "float32"}, {"name": "model_83/tf.nn.convolution_412/convolution/filter", "shape": [1, 1, 64, 64], "dtype": "float32"}, {"name": "model_83/tf.math.add_513/Add/y", "shape": [64], "dtype": "float32"}, {"name": "model_83/tf.nn.convolution_408/convolution/filter", "shape": [3, 3, 128, 64], "dtype": "float32"}, {"name": "model_83/tf.math.add_509/Add/y", "shape": [64], "dtype": "float32"}, {"name": "model_83/tf.nn.convolution_410/convolution/filter", "shape": [3, 3, 64, 64], "dtype": "float32"}, {"name": "model_83/tf.math.add_511/Add/y", "shape": [64], "dtype": "float32"}, {"name": "model_83/tf.nn.convolution_413/convolution/filter", "shape": [1, 1, 64, 2], "dtype": "float32"}, {"name": "model_83/tf.math.add_514/Add/y", "shape": [2], "dtype": "float32"}, {"name": "model_83/tf.concat_123/concat/axis", "shape": [], "dtype": "int32"}, {"name": "model_83/tf.compat.v1.transpose_147/transpose/perm", "shape": [4], "dtype": "int32"}, {"name": "model_83/tf.reshape_80/Reshape/shape", "shape": [3], "dtype": "int32"}, {"name": "model_83/tf.nn.convolution_417/convolution/filter", "shape": [3, 3, 256, 64], "dtype": "float32"}, {"name": "model_83/tf.math.add_518/Add/y", "shape": [64], "dtype": "float32"}, {"name": "model_83/tf.nn.convolution_419/convolution/filter", "shape": [3, 3, 64, 64], "dtype": "float32"}, {"name": "model_83/tf.math.add_520/Add/y", "shape": [64], "dtype": "float32"}, {"name": "model_83/tf.nn.convolution_421/convolution/filter", "shape": [1, 1, 64, 64], "dtype": "float32"}, {"name": "model_83/tf.math.add_522/Add/y", "shape": [64], "dtype": "float32"}, {"name": "model_83/tf.strided_slice_114/ones_like/tensor", "shape": [4], "dtype": "int32"}, {"name": "model_83/tf.strided_slice_114/StridedSlice/end", "shape": [4], "dtype": "int32"}, {"name": "model_83/tf.strided_slice_114/ones_like", "shape": [4], "dtype": "int32"}, {"name": "model_83/tf.strided_slice_112/ones_like/tensor", "shape": [4], "dtype": "int32"}, {"name": "model_83/tf.strided_slice_112/StridedSlice/end", "shape": [4], "dtype": "int32"}, {"name": "model_83/tf.strided_slice_112/ones_like", "shape": [4], "dtype": "int32"}, {"name": "model_83/tf.strided_slice_110/ones_like/tensor", "shape": [4], "dtype": "int32"}, {"name": "model_83/tf.strided_slice_110/StridedSlice/end", "shape": [4], "dtype": "int32"}, {"name": "model_83/tf.strided_slice_110/ones_like", "shape": [4], "dtype": "int32"}, {"name": "model_83/tf.image.resize_11/resize/size", "shape": [2], "dtype": "int32"}, {"name": "model_83/tf.concat_117/concat/axis", "shape": [], "dtype": "int32"}, {"name": "model_83/tf.nn.convolution_391/convolution/filter", "shape": [1, 1, 192, 64], "dtype": "float32"}, {"name": "model_83/tf.math.add_492/Add/y", "shape": [64], "dtype": "float32"}, {"name": "model_83/tf.strided_slice_111/ones_like/tensor", "shape": [4], "dtype": "int32"}, {"name": "model_83/tf.strided_slice_111/StridedSlice/end", "shape": [4], "dtype": "int32"}, {"name": "model_83/tf.strided_slice_111/ones_like", "shape": [4], "dtype": "int32"}, {"name": "model_83/tf.nn.convolution_392/convolution/filter", "shape": [3, 3, 32, 32], "dtype": "float32"}, {"name": "model_83/tf.math.add_493/Add/y", "shape": [32], "dtype": "float32"}, {"name": "model_83/tf.nn.convolution_393/convolution/filter", "shape": [3, 3, 32, 32], "dtype": "float32"}, {"name": "model_83/tf.math.add_494/Add/y", "shape": [32], "dtype": "float32"}, {"name": "model_83/tf.concat_118/concat/axis", "shape": [], "dtype": "int32"}, {"name": "model_83/tf.nn.convolution_394/convolution/filter", "shape": [1, 1, 96, 64], "dtype": "float32"}, {"name": "model_83/tf.math.add_495/Add/y", "shape": [64], "dtype": "float32"}, {"name": "model_83/tf.compat.v1.pad_40/Pad/paddings", "shape": [4, 2], "dtype": "int32"}, {"name": "model_83/tf.nn.convolution_395/convolution/filter", "shape": [3, 3, 64, 64], "dtype": "float32"}, {"name": "model_83/tf.math.add_496/Add/y", "shape": [64], "dtype": "float32"}, {"name": "model_83/tf.strided_slice_108/ones_like/tensor", "shape": [4], "dtype": "int32"}, {"name": "model_83/tf.strided_slice_108/StridedSlice/end", "shape": [4], "dtype": "int32"}, {"name": "model_83/tf.strided_slice_108/ones_like", "shape": [4], "dtype": "int32"}, {"name": "model_83/tf.image.resize_10/resize/size", "shape": [2], "dtype": "int32"}, {"name": "model_83/tf.concat_115/concat/axis", "shape": [], "dtype": "int32"}, {"name": "model_83/tf.nn.convolution_387/convolution/filter", "shape": [1, 1, 384, 128], "dtype": "float32"}, {"name": "model_83/tf.math.add_488/Add/y", "shape": [128], "dtype": "float32"}, {"name": "model_83/tf.strided_slice_109/ones_like/tensor", "shape": [4], "dtype": "int32"}, {"name": "model_83/tf.strided_slice_109/StridedSlice/end", "shape": [4], "dtype": "int32"}, {"name": "model_83/tf.strided_slice_109/ones_like", "shape": [4], "dtype": "int32"}, {"name": "model_83/tf.nn.convolution_388/convolution/filter", "shape": [3, 3, 64, 64], "dtype": "float32"}, {"name": "model_83/tf.math.add_489/Add/y", "shape": [64], "dtype": "float32"}, {"name": "model_83/tf.nn.convolution_389/convolution/filter", "shape": [3, 3, 64, 64], "dtype": "float32"}, {"name": "model_83/tf.math.add_490/Add/y", "shape": [64], "dtype": "float32"}, {"name": "model_83/tf.concat_116/concat/axis", "shape": [], "dtype": "int32"}, {"name": "model_83/tf.nn.convolution_390/convolution/filter", "shape": [1, 1, 192, 128], "dtype": "float32"}, {"name": "model_83/tf.math.add_491/Add/y", "shape": [128], "dtype": "float32"}, {"name": "model_83/tf.concat_119/concat/axis", "shape": [], "dtype": "int32"}, {"name": "model_83/tf.nn.convolution_400/convolution/filter", "shape": [1, 1, 192, 128], "dtype": "float32"}, {"name": "model_83/tf.math.add_501/Add/y", "shape": [128], "dtype": "float32"}, {"name": "model_83/tf.strided_slice_113/ones_like/tensor", "shape": [4], "dtype": "int32"}, {"name": "model_83/tf.strided_slice_113/StridedSlice/end", "shape": [4], "dtype": "int32"}, {"name": "model_83/tf.strided_slice_113/ones_like", "shape": [4], "dtype": "int32"}, {"name": "model_83/tf.nn.convolution_403/convolution/filter", "shape": [3, 3, 64, 64], "dtype": "float32"}, {"name": "model_83/tf.math.add_504/Add/y", "shape": [64], "dtype": "float32"}, {"name": "model_83/tf.nn.convolution_404/convolution/filter", "shape": [3, 3, 64, 64], "dtype": "float32"}, {"name": "model_83/tf.math.add_505/Add/y", "shape": [64], "dtype": "float32"}, {"name": "model_83/tf.concat_121/concat/axis", "shape": [], "dtype": "int32"}, {"name": "model_83/tf.nn.convolution_405/convolution/filter", "shape": [1, 1, 192, 128], "dtype": "float32"}, {"name": "model_83/tf.math.add_506/Add/y", "shape": [128], "dtype": "float32"}, {"name": "model_83/tf.compat.v1.pad_41/Pad/paddings", "shape": [4, 2], "dtype": "int32"}, {"name": "model_83/tf.nn.convolution_406/convolution/filter", "shape": [3, 3, 128, 128], "dtype": "float32"}, {"name": "model_83/tf.math.add_507/Add/y", "shape": [128], "dtype": "float32"}, {"name": "model_83/tf.strided_slice_106/ones_like/tensor", "shape": [4], "dtype": "int32"}, {"name": "model_83/tf.strided_slice_106/StridedSlice/end", "shape": [4], "dtype": "int32"}, {"name": "model_83/tf.strided_slice_106/ones_like", "shape": [4], "dtype": "int32"}, {"name": "model_83/tf.strided_slice_104/ones_like/tensor", "shape": [4], "dtype": "int32"}, {"name": "model_83/tf.strided_slice_104/StridedSlice/end", "shape": [4], "dtype": "int32"}, {"name": "model_83/tf.strided_slice_104/ones_like", "shape": [4], "dtype": "int32"}, {"name": "model_83/tf.strided_slice_102/ones_like/tensor", "shape": [4], "dtype": "int32"}, {"name": "model_83/tf.strided_slice_102/StridedSlice/end", "shape": [4], "dtype": "int32"}, {"name": "model_83/tf.strided_slice_102/ones_like", "shape": [4], "dtype": "int32"}, {"name": "model_83/tf.strided_slice_100/ones_like/tensor", "shape": [4], "dtype": "int32"}, {"name": "model_83/tf.strided_slice_100/StridedSlice/end", "shape": [4], "dtype": "int32"}, {"name": "model_83/tf.strided_slice_100/ones_like", "shape": [4], "dtype": "int32"}, {"name": "model_83/tf.compat.v1.pad_35/Pad/paddings", "shape": [4, 2], "dtype": "int32"}, {"name": "model_83/tf.nn.convolution_360/convolution/filter", "shape": [3, 3, 3, 16], "dtype": "float32"}, {"name": "model_83/tf.math.add_449/Add/y", "shape": [16], "dtype": "float32"}, {"name": "model_83/tf.compat.v1.pad_36/Pad/paddings", "shape": [4, 2], "dtype": "int32"}, {"name": "model_83/tf.nn.convolution_361/convolution/filter", "shape": [3, 3, 16, 32], "dtype": "float32"}, {"name": "model_83/tf.math.add_450/Add/y", "shape": [32], "dtype": "float32"}, {"name": "model_83/tf.nn.convolution_362/convolution/filter", "shape": [1, 1, 32, 32], "dtype": "float32"}, {"name": "model_83/tf.math.add_451/Add/y", "shape": [32], "dtype": "float32"}, {"name": "model_83/tf.strided_slice_101/ones_like/tensor", "shape": [4], "dtype": "int32"}, {"name": "model_83/tf.strided_slice_101/StridedSlice/end", "shape": [4], "dtype": "int32"}, {"name": "model_83/tf.strided_slice_101/ones_like", "shape": [4], "dtype": "int32"}, {"name": "model_83/tf.nn.convolution_363/convolution/filter", "shape": [3, 3, 16, 16], "dtype": "float32"}, {"name": "model_83/tf.math.add_452/Add/y", "shape": [16], "dtype": "float32"}, {"name": "model_83/tf.nn.convolution_364/convolution/filter", "shape": [3, 3, 16, 16], "dtype": "float32"}, {"name": "model_83/tf.math.add_453/Add/y", "shape": [16], "dtype": "float32"}, {"name": "model_83/tf.concat_110/concat/axis", "shape": [], "dtype": "int32"}, {"name": "model_83/tf.nn.convolution_365/convolution/filter", "shape": [1, 1, 48, 32], "dtype": "float32"}, {"name": "model_83/tf.math.add_456/Add/y", "shape": [32], "dtype": "float32"}, {"name": "model_83/tf.compat.v1.pad_37/Pad/paddings", "shape": [4, 2], "dtype": "int32"}, {"name": "model_83/tf.nn.convolution_366/convolution/filter", "shape": [3, 3, 32, 64], "dtype": "float32"}, {"name": "model_83/tf.math.add_457/Add/y", "shape": [64], "dtype": "float32"}, {"name": "model_83/tf.nn.convolution_367/convolution/filter", "shape": [1, 1, 64, 64], "dtype": "float32"}, {"name": "model_83/tf.math.add_458/Add/y", "shape": [64], "dtype": "float32"}, {"name": "model_83/tf.strided_slice_103/ones_like/tensor", "shape": [4], "dtype": "int32"}, {"name": "model_83/tf.strided_slice_103/StridedSlice/end", "shape": [4], "dtype": "int32"}, {"name": "model_83/tf.strided_slice_103/ones_like", "shape": [4], "dtype": "int32"}, {"name": "model_83/tf.nn.convolution_368/convolution/filter", "shape": [3, 3, 32, 32], "dtype": "float32"}, {"name": "model_83/tf.math.add_459/Add/y", "shape": [32], "dtype": "float32"}, {"name": "model_83/tf.nn.convolution_369/convolution/filter", "shape": [3, 3, 32, 32], "dtype": "float32"}, {"name": "model_83/tf.math.add_460/Add/y", "shape": [32], "dtype": "float32"}, {"name": "model_83/tf.nn.convolution_370/convolution/filter", "shape": [3, 3, 32, 32], "dtype": "float32"}, {"name": "model_83/tf.math.add_463/Add/y", "shape": [32], "dtype": "float32"}, {"name": "model_83/tf.nn.convolution_371/convolution/filter", "shape": [3, 3, 32, 32], "dtype": "float32"}, {"name": "model_83/tf.math.add_464/Add/y", "shape": [32], "dtype": "float32"}, {"name": "model_83/tf.concat_111/concat/axis", "shape": [], "dtype": "int32"}, {"name": "model_83/tf.nn.convolution_372/convolution/filter", "shape": [1, 1, 128, 64], "dtype": "float32"}, {"name": "model_83/tf.math.add_467/Add/y", "shape": [64], "dtype": "float32"}, {"name": "model_83/tf.compat.v1.pad_38/Pad/paddings", "shape": [4, 2], "dtype": "int32"}, {"name": "model_83/tf.nn.convolution_373/convolution/filter", "shape": [3, 3, 64, 128], "dtype": "float32"}, {"name": "model_83/tf.math.add_468/Add/y", "shape": [128], "dtype": "float32"}, {"name": "model_83/tf.nn.convolution_374/convolution/filter", "shape": [1, 1, 128, 128], "dtype": "float32"}, {"name": "model_83/tf.math.add_469/Add/y", "shape": [128], "dtype": "float32"}, {"name": "model_83/tf.strided_slice_105/ones_like/tensor", "shape": [4], "dtype": "int32"}, {"name": "model_83/tf.strided_slice_105/StridedSlice/end", "shape": [4], "dtype": "int32"}, {"name": "model_83/tf.strided_slice_105/ones_like", "shape": [4], "dtype": "int32"}, {"name": "model_83/tf.nn.convolution_375/convolution/filter", "shape": [3, 3, 64, 64], "dtype": "float32"}, {"name": "model_83/tf.math.add_470/Add/y", "shape": [64], "dtype": "float32"}, {"name": "model_83/tf.nn.convolution_376/convolution/filter", "shape": [3, 3, 64, 64], "dtype": "float32"}, {"name": "model_83/tf.math.add_471/Add/y", "shape": [64], "dtype": "float32"}, {"name": "model_83/tf.nn.convolution_377/convolution/filter", "shape": [3, 3, 64, 64], "dtype": "float32"}, {"name": "model_83/tf.math.add_474/Add/y", "shape": [64], "dtype": "float32"}, {"name": "model_83/tf.nn.convolution_378/convolution/filter", "shape": [3, 3, 64, 64], "dtype": "float32"}, {"name": "model_83/tf.math.add_475/Add/y", "shape": [64], "dtype": "float32"}, {"name": "model_83/tf.concat_112/concat/axis", "shape": [], "dtype": "int32"}, {"name": "model_83/tf.nn.convolution_379/convolution/filter", "shape": [1, 1, 256, 128], "dtype": "float32"}, {"name": "model_83/tf.math.add_478/Add/y", "shape": [128], "dtype": "float32"}, {"name": "model_83/tf.compat.v1.pad_39/Pad/paddings", "shape": [4, 2], "dtype": "int32"}, {"name": "model_83/tf.nn.convolution_380/convolution/filter", "shape": [3, 3, 128, 256], "dtype": "float32"}, {"name": "model_83/tf.math.add_479/Add/y", "shape": [256], "dtype": "float32"}, {"name": "model_83/tf.nn.convolution_381/convolution/filter", "shape": [1, 1, 256, 256], "dtype": "float32"}, {"name": "model_83/tf.math.add_480/Add/y", "shape": [256], "dtype": "float32"}, {"name": "model_83/tf.strided_slice_107/ones_like/tensor", "shape": [4], "dtype": "int32"}, {"name": "model_83/tf.strided_slice_107/StridedSlice/end", "shape": [4], "dtype": "int32"}, {"name": "model_83/tf.strided_slice_107/ones_like", "shape": [4], "dtype": "int32"}, {"name": "model_83/tf.nn.convolution_382/convolution/filter", "shape": [3, 3, 128, 128], "dtype": "float32"}, {"name": "model_83/tf.math.add_481/Add/y", "shape": [128], "dtype": "float32"}, {"name": "model_83/tf.nn.convolution_383/convolution/filter", "shape": [3, 3, 128, 128], "dtype": "float32"}, {"name": "model_83/tf.math.add_482/Add/y", "shape": [128], "dtype": "float32"}, {"name": "model_83/tf.concat_113/concat/axis", "shape": [], "dtype": "int32"}, {"name": "model_83/tf.nn.convolution_384/convolution/filter", "shape": [1, 1, 384, 256], "dtype": "float32"}, {"name": "model_83/tf.math.add_485/Add/y", "shape": [256], "dtype": "float32"}, {"name": "model_83/tf.nn.convolution_385/convolution/filter", "shape": [1, 1, 256, 128], "dtype": "float32"}, {"name": "model_83/tf.math.add_486/Add/y", "shape": [128], "dtype": "float32"}, {"name": "model_83/tf.concat_114/concat/axis", "shape": [], "dtype": "int32"}, {"name": "model_83/tf.nn.convolution_386/convolution/filter", "shape": [1, 1, 512, 256], "dtype": "float32"}, {"name": "model_83/tf.math.add_487/Add/y", "shape": [256], "dtype": "float32"}, {"name": "model_83/tf.concat_122/concat/axis", "shape": [], "dtype": "int32"}, {"name": "model_83/tf.nn.convolution_411/convolution/filter", "shape": [1, 1, 384, 256], "dtype": "float32"}, {"name": "model_83/tf.math.add_512/Add/y", "shape": [256], "dtype": "float32"}, {"name": "model_83/tf.strided_slice_115/ones_like/tensor", "shape": [4], "dtype": "int32"}, {"name": "model_83/tf.strided_slice_115/StridedSlice/end", "shape": [4], "dtype": "int32"}, {"name": "model_83/tf.strided_slice_115/ones_like", "shape": [4], "dtype": "int32"}, {"name": "model_83/tf.nn.convolution_414/convolution/filter", "shape": [3, 3, 128, 128], "dtype": "float32"}, {"name": "model_83/tf.math.add_515/Add/y", "shape": [128], "dtype": "float32"}, {"name": "model_83/tf.nn.convolution_415/convolution/filter", "shape": [3, 3, 128, 128], "dtype": "float32"}, {"name": "model_83/tf.math.add_516/Add/y", "shape": [128], "dtype": "float32"}, {"name": "model_83/tf.concat_124/concat/axis", "shape": [], "dtype": "int32"}, {"name": "model_83/tf.nn.convolution_416/convolution/filter", "shape": [1, 1, 384, 256], "dtype": "float32"}, {"name": "model_83/tf.math.add_517/Add/y", "shape": [256], "dtype": "float32"}, {"name": "model_83/tf.nn.convolution_418/convolution/filter", "shape": [3, 3, 256, 64], "dtype": "float32"}, {"name": "model_83/tf.math.add_519/Add/y", "shape": [64], "dtype": "float32"}, {"name": "model_83/tf.nn.convolution_420/convolution/filter", "shape": [3, 3, 64, 64], "dtype": "float32"}, {"name": "model_83/tf.math.add_521/Add/y", "shape": [64], "dtype": "float32"}, {"name": "model_83/tf.nn.convolution_422/convolution/filter", "shape": [1, 1, 64, 2], "dtype": "float32"}, {"name": "model_83/tf.math.add_523/Add/y", "shape": [2], "dtype": "float32"}, {"name": "model_83/tf.concat_125/concat/axis", "shape": [], "dtype": "int32"}, {"name": "model_83/tf.compat.v1.transpose_152/transpose/perm", "shape": [4], "dtype": "int32"}, {"name": "model_83/tf.reshape_83/Reshape/shape", "shape": [3], "dtype": "int32"}, {"name": "model_83/tf.concat_126/concat/axis", "shape": [], "dtype": "int32"}, {"name": "model_83/tf.strided_slice_117/StridedSlice/begin", "shape": [3], "dtype": "int32"}, {"name": "model_83/tf.strided_slice_117/StridedSlice/end", "shape": [3], "dtype": "int32"}, {"name": "model_83/tf.strided_slice_117/StridedSlice/strides", "shape": [3], "dtype": "int32"}, {"name": "model_83/output0/concat/axis", "shape": [], "dtype": "int32"}]}]}